Q3/model_pkl_4.pkl (torch, 613437 bytes, 56 tensors)

weight_mu f4 [6, 1, 5, 5]
0.11495241 -0.017505048 0.05737114 0.23715194 0.0040118354 0.29879764 0.00028027612 -0.0063728914
0.032235928 0.08260388 -0.06075838 -0.19574317 -0.47405645 -0.19700849 -0.16545835 -0.007512981
-0.09972104 -0.035432797 -0.11901113 -0.025709497 0.23304592 0.2702172 0.24914193 0.15634306
0.053555317 0.13634798 0.15511075 0.108727574 0.10024683 -0.15652376 0.22689664 0.19403173
0.1078992 0.0753314 -0.030036941 0.06254478 0.21258329 0.096382424 -0.07981557 0.070680246
-0.09022173 0.15012245 0.14875092 -0.0034965812 0.1892124 0.13636766 0.19357768 0.06171493
0.091923386 0.19306265 0.27185908 0.12997104 0.09117424 0.2020975 0.20403929 0.2504314
0.17581643 0.09260112 0.1300973 -0.04469224 0.25900602 0.26663527 0.15340984 0.048781116
0.036332123 0.3132522 0.20507267 -0.11959032 -0.19627093 0.013764644 0.088827856 0.13934816
-0.22127941 -0.16834733 -0.23630613 0.22392751 0.0747716 0.2648286 -0.040673282 -0.16245978
0.16684131 0.159636 -0.20913394 -0.4128221 -0.13664383 -0.19019341 -0.5412037 -0.688992
-0.21254638 0.16096577 -0.50736773 -0.47864494 -0.101791106 0.1971277 0.29991022 -0.121308915
-0.008729087 0.34210825 0.42138693 0.15849689 0.30662128 0.31585133 0.1642173 0.09871071
0.013463996 -0.1128382 0.03964552 0.19768517 0.16811095 0.06393731 -0.29716522 -0.16630785
0.057328362 0.2046019 0.24827074 -0.22063842 -0.36869234 -0.36625683 -0.36556152 -0.041179873
0.04736854 -0.07340751 -0.20324065 -0.16089086 -0.2752788 0.018547622 -0.12451228 -0.27643335
-0.30047825 -0.098596364 0.21109992 0.050884925 -0.29182115 -0.22063021 -0.24636994 0.19128697
0.14531827 0.012207696 -0.14295171 -0.22458473 0.03492295 0.20879054 0.19401188 0.1118161
0.298561 0.02393492 0.28478014 0.35005492 0.3457081 0.23773268
00000000: 2b6c eb3d bf66 8fbc 00fe 6a3d f5d7 723e
00000010: b775 833b 01fc 983e 06f2 9239 b0d3 d0bb
00000020: d209 043d 392c a93d c7dd 78bd e670 48be
00000030: 87b7 f2be 98bc 49be ea6d 29be 742f f6bb
00000040: 8b3a ccbd fb21 11bd 1bbc f3bd b99c d2bc
00000050: 97a3 6e3e e959 8a3e 101f 7f3e 6518 203e
00000060: d25c 5b3d ce9e 0b3e 5ad5 1e3e 90ac de3d
00000070: 364e cd3d c447 20be 9857 683e 41b0 463e
00000080: 41fa dc3d 5947 9a3d 0810 f6bc 7a17 803d
00000090: 6faf 593e 2664 c53d 5876 a3bd cec0 903d
000000a0: 2cc6 b8bd b3b9 193e 2952 183e e626 65bb
000000b0: e5c0 413e f7a3 0b3e 3a39 463e cbc8 7c3d
000000c0: 5442 bc3d 37b2 453e 1d31 8b3e 2117 053e
000000d0: 8fb9 ba3d a6f2 4e3e adef 503e 8b38 803e
000000e0: 3909 343e a8a5 bd3d 3a38 053e 360f 37bd
000000f0: 709c 843e 6b84 883e 7817 1d3e b5ce 473d
00000100: fed0 143d 9862 a03e 92fe 513e c5eb f4bd
00000110: 3ffb 48be 1a85 613c 61eb b53d 49b1 0e3e
00000120: 1297 62be 3e63 2cbe 3cfa 71be 414d 653e
00000130: da21 993d 9d97 873e 0799 26bd db5b 26be
00000140: 73d8 2a3e 9f77 233e 3527 56be 6b5d d3be
00000150: 5cec 0bbe 10c2 42be 538c 0abf c861 30bf
00000160: c2a5 59be 36d4 243e dae2 01bf f310 f5be
00000170: db77 d0bd d8db 493e d58d 993e cf70 f8bd
00000180: 7204 0fbc d028 af3e 07c0 d73e 024d 223e
00000190: 77fd 9c3e 44b7 a13e 9428 283e d728 ca3d
000001a0: 1898 5c3c b717 e7bd 5763 223d fb6d 4a3e
000001b0: 4725 2c3e 90f1 823d 0a26 98be 9b4c 2abe
000001c0: 25d1 6a3d 2983 513e af3a 7e3e 0aef 61be
000001d0: 3ec5 bcbe 0486 bbbe e12a bbbe 3aac 28bd
000001e0: 8405 423d ad56 96bd 511e 50be 93c0 24be
000001f0: 58f1 8cbe 2ff1 973c 4b00 ffbd ac88 8dbe
00000200: 49d8 99be e4ec c9bd 942a 583e b66c 503d
00000210: 9569 95be e3ec 61be 6748 7cbe bbe0 433e
00000220: 50ce 143e ca02 483c ef61 12be 8af9 65be
00000230: 5e0b 0f3d 30cd 553e 0dab 463e d7ff e43d
00000240: fddc 983e 2a13 c43c b4ce 913e 663a b33e
00000250: a700 b13e 3270 733e

weight_rho f4 [6, 1, 5, 5]
-6.0554805 -6.145871 -6.1071925 -6.084833 -6.035725 -6.0278153 -5.9611993 -6.128034
-5.983417 -6.156359 -6.107191 -6.107713 -6.268462 -5.971402 -5.930619 -5.995694
-6.128497 -5.8638496 -6.196591 -5.9197416 -6.0624022 -6.071737 -6.0327773 -6.0440965
-5.946614 -6.1738734 -6.0550103 -5.847287 -5.93629 -5.9965844 -6.218428 -5.9943275
-6.0387206 -6.199859 -6.0398216 -5.9675198 -5.9581285 -5.827699 -5.947145 -6.096276
-6.1505966 -6.00396 -5.9227705 -5.9017806 -5.89675 -5.9187045 -5.8351493 -5.97242
-5.9152284 -6.0231066 -6.1288877 -5.8600507 -6.1979375 -6.00468 -5.808275 -6.001224
-6.081581 -5.978133 -6.0684814 -6.148213 -6.05933 -6.099636 -6.0297537 -5.9575505
-6.148276 -5.8894143 -5.993739 -6.064755 -5.916305 -5.7916718 -6.0960565 -6.0690613
-5.873789 -5.988668 -5.9679317 -5.925502 -5.9693217 -5.893838 -5.948085 -5.9186378
-6.165711 -6.0853424 -6.002732 -5.997593 -5.936322 -5.8811393 -6.05969 -6.0320063
-6.0580506 -5.962538 -5.9565415 -5.898108 -6.206627 -5.839224 -6.003371 -6.066404
-5.9023495 -5.9367537 -5.8702445 -5.9700828 -6.008568 -6.097279 -5.971641 -5.8737164
-6.0883665 -6.1147885 -6.147034 -5.9026594 -5.924839 -5.992038 -5.9527073 -5.8913937
-6.0266566 -5.9702296 -5.885893 -6.012097 -5.9759936 -6.043541 -6.0894165 -6.0725913
-5.9850893 -5.752268 -6.1870837 -6.1104436 -5.8810024 -6.082512 -6.1582546 -6.129232
-5.948837 -5.875221 -6.143567 -5.9163604 -5.959561 -5.937047 -5.999487 -6.0079355
-5.8209534 -6.1539173 -6.0061207 -6.1137958 -6.110245 -5.8915834 -6.1028337 -6.2629857
-5.9861813 -5.9878173 -6.243916 -5.9522624 -5.942457 -5.9537587
00000000: 7fc6 c1c0 faaa c4c0 1f6e c3c0 f4b6 c2c0
00000010: a924 c1c0 dde3 c0c0 25c2 bec0 db18 c4c0
00000020: 2778 bfc0 e500 c5c0 1c6e c3c0 6372 c3c0
00000030: 3e97 c8c0 ba15 bfc0 a1c7 bdc0 badc bfc0
00000040: a61c c4c0 a8a4 bbc0 794a c6c0 866e bdc0
00000050: 33ff c1c0 ab4b c2c0 830c c1c0 3d69 c1c0
00000060: a94a bec0 5f90 c5c0 a5c2 c1c0 fa1c bbc0
00000070: 16f6 bdc0 05e4 bfc0 5dfd c6c0 88d1 bfc0
00000080: 333d c1c0 3f65 c6c0 3846 c1c0 ecf5 bec0
00000090: fda8 bec0 837c bac0 034f bec0 b114 c3c0
000000a0: b0d1 c4c0 7120 c0c0 5687 bdc0 63db bcc0
000000b0: 2db2 bcc0 0766 bdc0 8bb9 bac0 111e bfc0
000000c0: 8d49 bdc0 4abd c0c0 d91f c4c0 8985 bbc0
000000d0: 8155 c6c0 5726 c0c0 64dd b9c0 070a c0c0
000000e0: 509c c2c0 de4c bfc0 0031 c2c0 29be c4c0
000000f0: 08e6 c1c0 3830 c3c0 bef3 c0c0 41a4 bec0
00000100: adbe c4c0 1576 bcc0 b6cc bfc0 7912 c2c0
00000110: 5f52 bdc0 6055 b9c0 e512 c3c0 c035 c2c0
00000120: 14f6 bbc0 2ba3 bfc0 4cf9 bec0 b69d bdc0
00000130: af04 bfc0 529a bcc0 b656 bec0 7b65 bdc0
00000140: 814d c5c0 20bb c2c0 6116 c0c0 48ec bfc0
00000150: 5af6 bdc0 4b32 bcc0 fbe8 c1c0 3206 c1c0
00000160: 8ddb c1c0 1ccd bec0 fd9b bec0 4dbd bcc0
00000170: b09c c6c0 ecda bac0 9d1b c0c0 fb1f c2c0
00000180: 0ce0 bcc0 e3f9 bdc0 0bd9 bbc0 eb0a bfc0
00000190: 3046 c0c0 e91c c3c0 af17 bfc0 7cf5 bbc0
000001a0: e6d3 c2c0 59ac c3c0 81b4 c4c0 96e2 bcc0
000001b0: 4898 bdc0 c6be bfc0 947c bec0 4c86 bcc0
000001c0: 5fda c0c0 1f0c bfc0 3c59 bcc0 1963 c0c0
000001d0: 573b bfc0 b064 c1c0 80dc c2c0 ab52 c2c0
000001e0: da85 bfc0 9412 b8c0 97fc c5c0 c188 c3c0
000001f0: 2c31 bcc0 f0a3 c2c0 6c10 c5c0 ab22 c4c0
00000200: df5c bec0 cf01 bcc0 1a98 c4c0 d352 bdc0
00000210: b9b4 bec0 4afc bdc0 ccfb bfc0 0241 c0c0
00000220: 4045 bac0 e4ec c4c0 2432 c0c0 37a4 c3c0
00000230: 2187 c3c0 da87 bcc0 6a4a c3c0 616a c8c0
00000240: cc8e bfc0 339c bfc0 29ce c7c0 ef78 bec0
00000250: 9c28 bec0 3185 bec0

bias_mu f4 [6]
-0.013887346 -0.0071118176 0.00086703 0.095257476 0.15449731 0.028668696
00000000: c087 63bc 400a e9bb 6649 633a 5a16 c33d
00000010: 8b34 1e3e 9dda ea3c

bias_rho f4 [6]
-6.1117926 -6.1151323 -6.063292 -6.053459 -6.095966 -5.94672
00000000: ce93 c3c0 2aaf c3c0 7d06 c2c0 f0b5 c1c0
00000010: 2712 c3c0 884b bec0

mu f4 [6, 1, 5, 5]
0.11495241 -0.017505048 0.05737114 0.23715194 0.0040118354 0.29879764 0.00028027612 -0.0063728914
0.032235928 0.08260388 -0.06075838 -0.19574317 -0.47405645 -0.19700849 -0.16545835 -0.007512981
-0.09972104 -0.035432797 -0.11901113 -0.025709497 0.23304592 0.2702172 0.24914193 0.15634306
0.053555317 0.13634798 0.15511075 0.108727574 0.10024683 -0.15652376 0.22689664 0.19403173
0.1078992 0.0753314 -0.030036941 0.06254478 0.21258329 0.096382424 -0.07981557 0.070680246
-0.09022173 0.15012245 0.14875092 -0.0034965812 0.1892124 0.13636766 0.19357768 0.06171493
0.091923386 0.19306265 0.27185908 0.12997104 0.09117424 0.2020975 0.20403929 0.2504314
0.17581643 0.09260112 0.1300973 -0.04469224 0.25900602 0.26663527 0.15340984 0.048781116
0.036332123 0.3132522 0.20507267 -0.11959032 -0.19627093 0.013764644 0.088827856 0.13934816
-0.22127941 -0.16834733 -0.23630613 0.22392751 0.0747716 0.2648286 -0.040673282 -0.16245978
0.16684131 0.159636 -0.20913394 -0.4128221 -0.13664383 -0.19019341 -0.5412037 -0.688992
-0.21254638 0.16096577 -0.50736773 -0.47864494 -0.101791106 0.1971277 0.29991022 -0.121308915
-0.008729087 0.34210825 0.42138693 0.15849689 0.30662128 0.31585133 0.1642173 0.09871071
0.013463996 -0.1128382 0.03964552 0.19768517 0.16811095 0.06393731 -0.29716522 -0.16630785
0.057328362 0.2046019 0.24827074 -0.22063842 -0.36869234 -0.36625683 -0.36556152 -0.041179873
0.04736854 -0.07340751 -0.20324065 -0.16089086 -0.2752788 0.018547622 -0.12451228 -0.27643335
-0.30047825 -0.098596364 0.21109992 0.050884925 -0.29182115 -0.22063021 -0.24636994 0.19128697
0.14531827 0.012207696 -0.14295171 -0.22458473 0.03492295 0.20879054 0.19401188 0.1118161
0.298561 0.02393492 0.28478014 0.35005492 0.3457081 0.23773268
00000000: 2b6c eb3d bf66 8fbc 00fe 6a3d f5d7 723e
00000010: b775 833b 01fc 983e 06f2 9239 b0d3 d0bb
00000020: d209 043d 392c a93d c7dd 78bd e670 48be
00000030: 87b7 f2be 98bc 49be ea6d 29be 742f f6bb
00000040: 8b3a ccbd fb21 11bd 1bbc f3bd b99c d2bc
00000050: 97a3 6e3e e959 8a3e 101f 7f3e 6518 203e
00000060: d25c 5b3d ce9e 0b3e 5ad5 1e3e 90ac de3d
00000070: 364e cd3d c447 20be 9857 683e 41b0 463e
00000080: 41fa dc3d 5947 9a3d 0810 f6bc 7a17 803d
00000090: 6faf 593e 2664 c53d 5876 a3bd cec0 903d
000000a0: 2cc6 b8bd b3b9 193e 2952 183e e626 65bb
000000b0: e5c0 413e f7a3 0b3e 3a39 463e cbc8 7c3d
000000c0: 5442 bc3d 37b2 453e 1d31 8b3e 2117 053e
000000d0: 8fb9 ba3d a6f2 4e3e adef 503e 8b38 803e
000000e0: 3909 343e a8a5 bd3d 3a38 053e 360f 37bd
000000f0: 709c 843e 6b84 883e 7817 1d3e b5ce 473d
00000100: fed0 143d 9862 a03e 92fe 513e c5eb f4bd
00000110: 3ffb 48be 1a85 613c 61eb b53d 49b1 0e3e
00000120: 1297 62be 3e63 2cbe 3cfa 71be 414d 653e
00000130: da21 993d 9d97 873e 0799 26bd db5b 26be
00000140: 73d8 2a3e 9f77 233e 3527 56be 6b5d d3be
00000150: 5cec 0bbe 10c2 42be 538c 0abf c861 30bf
00000160: c2a5 59be 36d4 243e dae2 01bf f310 f5be
00000170: db77 d0bd d8db 493e d58d 993e cf70 f8bd
00000180: 7204 0fbc d028 af3e 07c0 d73e 024d 223e
00000190: 77fd 9c3e 44b7 a13e 9428 283e d728 ca3d
000001a0: 1898 5c3c b717 e7bd 5763 223d fb6d 4a3e
000001b0: 4725 2c3e 90f1 823d 0a26 98be 9b4c 2abe
000001c0: 25d1 6a3d 2983 513e af3a 7e3e 0aef 61be
000001d0: 3ec5 bcbe 0486 bbbe e12a bbbe 3aac 28bd
000001e0: 8405 423d ad56 96bd 511e 50be 93c0 24be
000001f0: 58f1 8cbe 2ff1 973c 4b00 ffbd ac88 8dbe
00000200: 49d8 99be e4ec c9bd 942a 583e b66c 503d
00000210: 9569 95be e3ec 61be 6748 7cbe bbe0 433e
00000220: 50ce 143e ca02 483c ef61 12be 8af9 65be
00000230: 5e0b 0f3d 30cd 553e 0dab 463e d7ff e43d
00000240: fddc 983e 2a13 c43c b4ce 913e 663a b33e
00000250: a700 b13e 3270 733e

rho f4 [6, 1, 5, 5]
-6.0554805 -6.145871 -6.1071925 -6.084833 -6.035725 -6.0278153 -5.9611993 -6.128034
-5.983417 -6.156359 -6.107191 -6.107713 -6.268462 -5.971402 -5.930619 -5.995694
-6.128497 -5.8638496 -6.196591 -5.9197416 -6.0624022 -6.071737 -6.0327773 -6.0440965
-5.946614 -6.1738734 -6.0550103 -5.847287 -5.93629 -5.9965844 -6.218428 -5.9943275
-6.0387206 -6.199859 -6.0398216 -5.9675198 -5.9581285 -5.827699 -5.947145 -6.096276
-6.1505966 -6.00396 -5.9227705 -5.9017806 -5.89675 -5.9187045 -5.8351493 -5.97242
-5.9152284 -6.0231066 -6.1288877 -5.8600507 -6.1979375 -6.00468 -5.808275 -6.001224
-6.081581 -5.978133 -6.0684814 -6.148213 -6.05933 -6.099636 -6.0297537 -5.9575505
-6.148276 -5.8894143 -5.993739 -6.064755 -5.916305 -5.7916718 -6.0960565 -6.0690613
-5.873789 -5.988668 -5.9679317 -5.925502 -5.9693217 -5.893838 -5.948085 -5.9186378
-6.165711 -6.0853424 -6.002732 -5.997593 -5.936322 -5.8811393 -6.05969 -6.0320063
-6.0580506 -5.962538 -5.9565415 -5.898108 -6.206627 -5.839224 -6.003371 -6.066404
-5.9023495 -5.9367537 -5.8702445 -5.9700828 -6.008568 -6.097279 -5.971641 -5.8737164
-6.0883665 -6.1147885 -6.147034 -5.9026594 -5.924839 -5.992038 -5.9527073 -5.8913937
-6.0266566 -5.9702296 -5.885893 -6.012097 -5.9759936 -6.043541 -6.0894165 -6.0725913
-5.9850893 -5.752268 -6.1870837 -6.1104436 -5.8810024 -6.082512 -6.1582546 -6.129232
-5.948837 -5.875221 -6.143567 -5.9163604 -5.959561 -5.937047 -5.999487 -6.0079355
-5.8209534 -6.1539173 -6.0061207 -6.1137958 -6.110245 -5.8915834 -6.1028337 -6.2629857
-5.9861813 -5.9878173 -6.243916 -5.9522624 -5.942457 -5.9537587
00000000: 7fc6 c1c0 faaa c4c0 1f6e c3c0 f4b6 c2c0
00000010: a924 c1c0 dde3 c0c0 25c2 bec0 db18 c4c0
00000020: 2778 bfc0 e500 c5c0 1c6e c3c0 6372 c3c0
00000030: 3e97 c8c0 ba15 bfc0 a1c7 bdc0 badc bfc0
00000040: a61c c4c0 a8a4 bbc0 794a c6c0 866e bdc0
00000050: 33ff c1c0 ab4b c2c0 830c c1c0 3d69 c1c0
00000060: a94a bec0 5f90 c5c0 a5c2 c1c0 fa1c bbc0
00000070: 16f6 bdc0 05e4 bfc0 5dfd c6c0 88d1 bfc0
00000080: 333d c1c0 3f65 c6c0 3846 c1c0 ecf5 bec0
00000090: fda8 bec0 837c bac0 034f bec0 b114 c3c0
000000a0: b0d1 c4c0 7120 c0c0 5687 bdc0 63db bcc0
000000b0: 2db2 bcc0 0766 bdc0 8bb9 bac0 111e bfc0
000000c0: 8d49 bdc0 4abd c0c0 d91f c4c0 8985 bbc0
000000d0: 8155 c6c0 5726 c0c0 64dd b9c0 070a c0c0
000000e0: 509c c2c0 de4c bfc0 0031 c2c0 29be c4c0
000000f0: 08e6 c1c0 3830 c3c0 bef3 c0c0 41a4 bec0
00000100: adbe c4c0 1576 bcc0 b6cc bfc0 7912 c2c0
00000110: 5f52 bdc0 6055 b9c0 e512 c3c0 c035 c2c0
00000120: 14f6 bbc0 2ba3 bfc0 4cf9 bec0 b69d bdc0
00000130: af04 bfc0 529a bcc0 b656 bec0 7b65 bdc0
00000140: 814d c5c0 20bb c2c0 6116 c0c0 48ec bfc0
00000150: 5af6 bdc0 4b32 bcc0 fbe8 c1c0 3206 c1c0
00000160: 8ddb c1c0 1ccd bec0 fd9b bec0 4dbd bcc0
00000170: b09c c6c0 ecda bac0 9d1b c0c0 fb1f c2c0
00000180: 0ce0 bcc0 e3f9 bdc0 0bd9 bbc0 eb0a bfc0
00000190: 3046 c0c0 e91c c3c0 af17 bfc0 7cf5 bbc0
000001a0: e6d3 c2c0 59ac c3c0 81b4 c4c0 96e2 bcc0
000001b0: 4898 bdc0 c6be bfc0 947c bec0 4c86 bcc0
000001c0: 5fda c0c0 1f0c bfc0 3c59 bcc0 1963 c0c0
000001d0: 573b bfc0 b064 c1c0 80dc c2c0 ab52 c2c0
000001e0: da85 bfc0 9412 b8c0 97fc c5c0 c188 c3c0
000001f0: 2c31 bcc0 f0a3 c2c0 6c10 c5c0 ab22 c4c0
00000200: df5c bec0 cf01 bcc0 1a98 c4c0 d352 bdc0
00000210: b9b4 bec0 4afc bdc0 ccfb bfc0 0241 c0c0
00000220: 4045 bac0 e4ec c4c0 2432 c0c0 37a4 c3c0
00000230: 2187 c3c0 da87 bcc0 6a4a c3c0 616a c8c0
00000240: cc8e bfc0 339c bfc0 29ce c7c0 ef78 bec0
00000250: 9c28 bec0 3185 bec0

eps_w f4 [6, 1, 5, 5]
-0.15197136 0.7503824 -1.1504916 -0.53258777 -0.053002793 -1.230019 -0.058315016 1.0645373
-0.5613354 -1.4754548 -0.2889095 1.0082523 0.7282688 -0.21158849 -0.5722951 0.8182949
0.21912406 -1.0326945 -0.88496464 0.3816151 2.1208804 -0.7666488 -0.18173288 0.72603273
1.1129496 -0.3403418 -0.68935764 -1.3205566 1.210037 -1.8671277 -0.23873708 -0.19457088
1.8524222 -0.7360317 -0.18337479 -0.59931886 0.14279471 -0.08175195 -1.146845 -0.09881073
-0.54820156 -0.32850248 1.3811653 -0.75799763 -0.5083021 -0.5452042 0.07470634 -1.3421141
0.46457213 -1.3531848 0.53825676 0.015809562 0.6315815 -1.8034887 -0.14647304 -1.0359936
0.746324 0.21573645 0.68050605 1.2774553 0.16335751 1.090451 -0.2239942 -1.4120809
0.12948367 -1.3434292 -0.28472275 -0.29695332 -0.34978387 -0.79095745 -0.38440984 -0.010215019
-0.16135688 1.2186501 0.9513436 -0.6069405 -0.010795183 0.7965124 0.37347 0.80937934
-0.45812878 1.0805222 -0.49141082 1.4729763 -0.2946069 -0.40639234 1.1305463 -1.5750607
0.10070403 -0.39133334 0.8098092 0.8743225 -0.5632248 2.0529664 -0.12168166 -2.1271944
0.7319839 0.53497577 -0.55887365 -1.6266174 -0.33981228 0.11688484 0.6225541 1.2150481
-0.08297135 1.0756743 0.63131386 -0.71363777 0.7817278 1.5506477 -0.24620266 0.35131675
-0.11057483 2.015049 -0.7986351 -0.35900944 -0.107922584 0.26452324 0.852505 0.7588854
0.94909567 -0.9753929 0.18252167 2.753561 -0.36077753 -0.8461805 1.3084018 -0.53387773
-2.3853016 -0.3948406 0.8539694 -0.0011557912 -0.5165682 1.5321723 0.5134963 -0.6712608
0.8527327 -0.45761904 0.504631 -1.5810208 0.28056502 -0.1565265 0.97627866 -0.35261315
0.41199422 1.1214296 1.932659 2.1617146 0.018723568 -0.43491137
00000000: 619e 1bbe 1019 403f 4f43 93bf ac57 08bf
00000010: 7519 59bd 4371 9dbf badb 6ebd c242 883f
00000020: adb3 0fbf b4db bcbf f2eb 93be 690e 813f
00000030: d36f 3a3f a7aa 58be ef81 12bf c67b 513f
00000040: 0f62 603e 552f 84bf 0b8d 62bf 0e63 c33e
00000050: 81bc 0740 1943 44bf 2f18 3abe 48dd 393f
00000060: 2275 8e3f 4841 aebe be79 30bf 0008 a9bf
00000070: 7ee2 9a3f 0afe eebf 7e77 74be 973d 47be
00000080: 2c1c ed3f 936c 3cbf 9ac6 3bbe f66c 19bf
00000090: c738 123e 916d a7bd d1cb 92bf 485d cabd
000000a0: f056 0cbf 7a31 a8be 06ca b03f 220c 42bf
000000b0: 1620 02bf 8192 0bbf a3ff 983d 65ca abbf
000000c0: 66dc ed3e 2935 adbf 32cb 093f 0e83 813c
000000d0: 53af 213f b8d8 e6bf 07fd 15be 709b 84bf
000000e0: 170f 3f3f 04ea 5c3e a535 2e3f a883 a33f
000000f0: 3147 273e e693 8b3f bc5e 65be 11bf b4bf
00000100: 5e97 043e 7df5 abbf 2ec7 91be 440a 98be
00000110: df16 b3be 307c 4abf 5ed1 c4be e55c 27bc
00000120: bd3a 25be bafc 9b3f 418b 733f 7460 1bbf
00000130: 47de 30bc 3de8 4b3f 7637 bf3e 7c33 4f3f
00000140: db8f eabe 8d4e 8a3f 339a fbbe 7d8a bc3f
00000150: b7d6 96be a812 d0be beb5 903f 979b c9bf
00000160: ea3d ce3d d85c c8be a84f 4f3f 99d3 5f3f
00000170: 802f 10bf cd63 0340 3c34 f9bd f423 08c0
00000180: 4c63 3b3f 2cf4 083f 5812 0fbf 0035 d0bf
00000190: e0fb adbe 5261 ef3d b55f 1f3f b286 9b3f
000001a0: e2ec a9bd b2af 893f c99d 213f f7b0 36bf
000001b0: 501f 483f a07b c63f 8d1c 7cbe cadf b33e
000001c0: 0e75 e2bd 90f6 0040 5a73 4cbf 16d0 b7be
000001d0: 8406 ddbd 976f 873e c53d 5a3f 5046 423f
000001e0: eff7 723f 59b3 79bf f6e6 3a3e 583a 3040
000001f0: d5b7 b8be 499f 58bf b679 a73f 36ac 08bf
00000200: c8a8 18c0 8c28 cabe bd9d 5a3f eb7d 97ba
00000210: d03d 04bf 391e c43f 7e74 033f bfd7 2bbf
00000220: b14c 5a3f 0b4d eabe 7f2f 013f e45e cabf
00000230: 38a6 8f3e 7c48 20be 66ed 793f b689 b4be
00000240: e8f0 d23e 018b 8f3f 5f61 f73f 8859 0a40
00000250: 2b62 993c b4ac debe

sigma f4 [6, 1, 5, 5]
0.0023422302 0.0021400172 0.002224318 0.0022745554 0.002388906 0.0024078535 0.0025735055 0.0021784895
0.0025170294 0.0021177137 0.0022243212 0.0022231615 0.0018933472 0.002547415 0.0026533143 0.0024863547
0.002177482 0.0028362623 0.0020342905 0.0026822935 0.0023260924 0.002304505 0.0023959498 0.0023690145
0.0026112671 0.0020809846 0.0023433303 0.002883561 0.0026383298 0.002484145 0.0019903923 0.0024897507
0.0023817692 0.0020276594 0.0023791513 0.0025573117 0.0025814103 0.0029405172 0.0026098823 0.002248706
0.0021299394 0.0024659126 0.0026741922 0.0027308392 0.0027445927 0.002685073 0.0029187233 0.0025448264
0.0026944105 0.002419205 0.0021766326 0.0028470426 0.0020315556 0.0024641398 0.0029981057 0.0024726603
0.0022819561 0.0025303476 0.0023120109 0.0021350172 0.0023332413 0.0022411707 0.0024031966 0.0025829007
0.0021348828 0.0027647724 0.0024912143 0.0023206326 0.0026915148 0.0030482237 0.0022491987 0.002310672
0.0028082512 0.0025038638 0.0025562595 0.0026669079 0.0025527135 0.0027525858 0.0026074336 0.002685252
0.0020980225 0.002273399 0.0024689396 0.002481644 0.0026382443 0.002787714 0.0023324024 0.0023977957
0.0023362248 0.0025700675 0.0025855047 0.0027408733 0.002013997 0.002906872 0.0024673645 0.0023168135
0.0027292883 0.0026371076 0.0028182084 0.0025507743 0.0024545905 0.0022464534 0.0025468073 0.0028084547
0.002266542 0.0022075046 0.0021375325 0.0027284436 0.0026686736 0.0024954511 0.0025954244 0.0027593127
0.002410642 0.0025504 0.002774512 0.002445954 0.0025357604 0.0023703293 0.002264166 0.002302539
0.0025128294 0.0031705394 0.002053703 0.0022171063 0.0027880948 0.0022798355 0.0021137078 0.0021758843
0.0026054762 0.0028042386 0.0021449486 0.0026913662 0.0025777197 0.0026363353 0.0024769541 0.002456141
0.0029603909 0.0021228855 0.002460597 0.002209695 0.0022175459 0.00275879 0.0022340238 0.0019037346
0.0025100901 0.0025059923 0.0019403511 0.0025965779 0.0026221294 0.0025927003
00000000: 1a80 193b 883f 0c3b ddc5 113b b510 153b
00000010: 318f 1c3b 14cd 1d3b 42a8 283b fdc4 0e3b
00000020: bff4 243b 57c9 0a3b ebc5 113b 76b2 113b
00000030: 312a f83a 88f2 263b 3ae3 2d3b 1cf2 223b
00000040: 16b4 0e3b 96e0 393b bb51 053b 6bc9 2f3b
00000050: 5b71 183b 2e07 173b 5e05 1d3b 7841 1b3b
00000060: cb21 2b3b 2161 083b 8f92 193b 20fa 3c3b
00000070: d4e7 2c3b 0acd 223b 3e71 023b 162b 233b
00000080: 7517 1c3b 7be2 043b 89eb 1b3b 9298 273b
00000090: e12c 293b b1b5 403b 8f0a 2b3b 075f 133b
000000a0: 7496 0b3b 269b 213b 8041 2f3b e1f7 323b
000000b0: a0de 333b 0df8 2f3b 0d48 3f3b 1ac7 263b
000000c0: b594 303b 868b 1e3b d6a5 0e3b 7395 3a3b
000000d0: d923 053b 687d 213b de7b 443b 5b0c 223b
000000e0: df8c 153b 30d4 253b 1b85 173b a5eb 0b3b
000000f0: 4be9 183b 9be0 123b f37e 1d3b e245 293b
00000100: 64e9 0b3b 2f31 353b a443 233b c115 183b
00000110: 2064 303b b5c4 473b 4b67 133b a56e 173b
00000120: a30a 383b dd17 243b eb86 273b 4ac7 2e3b
00000130: 6d4b 273b ba64 343b 7ae1 2a3b 0efb 2f3b
00000140: fa7e 093b 4efd 143b efcd 213b 14a3 223b
00000150: 65e6 2c3b 14b2 363b 38db 183b 5624 1d3b
00000160: 591b 193b 946e 283b 9271 293b 39a0 333b
00000170: 43fd 033b 3881 3e3b 82b3 213b aed5 173b
00000180: dcdd 323b 53d3 2c3b b1b1 383b e42a 273b
00000190: 32dd 203b 3c39 133b 56e8 263b 0d0e 383b
000001a0: 448a 143b c8ab 103b d815 0c3b b0cf 323b
000001b0: eae4 2e3b b98a 233b ff17 2a3b 96d5 343b
000001c0: ddfb 1d3b 9d24 273b 96d4 353b 4c4c 203b
000001d0: 002f 263b 8757 1b3b 6762 143b 32e6 163b
000001e0: 48ae 243b d3c8 4f3b 6b97 063b df4c 113b
000001f0: 78b8 363b 4b69 153b 2286 0a3b 4899 0e3b
00000200: a3c0 2a3b 51c7 373b 4492 0c3b a261 303b
00000210: f6ee 283b 5ec6 2c3b 6554 223b 35f7 203b
00000220: 1e03 423b 1c20 0b3b f841 213b 88d0 103b
00000230: 3f54 113b d1cc 343b b368 123b bc86 f93a
00000240: 5380 243b 933b 243b 6153 fe3a 592b 2a3b
00000250: 08d8 2b3b 4bea 293b

w f4 [6, 1, 5, 5]
0.11459646 -0.015899217 0.05481208 0.23594053 0.0038852168 0.29583594 0.0001302021 -0.004053808
0.03082303 0.07947929 -0.061401006 -0.19350167 -0.4726776 -0.1975475 -0.16697682 -0.00547841
-0.0992439 -0.038361788 -0.1208114 -0.024685893 0.23797928 0.26845047 0.2487065 0.15806304
0.056461528 0.13563973 0.15349536 0.10491967 0.10343931 -0.16116197 0.22642146 0.1935473
0.11231124 0.07383898 -0.030473217 0.061012134 0.2129519 0.09614203 -0.082808696 0.07045805
-0.091389365 0.14931239 0.15244442 -0.005566551 0.18781732 0.13490374 0.19379573 0.058299482
0.093175136 0.18978901 0.27303067 0.13001606 0.09245733 0.19765346 0.20360015 0.24786973
0.17751952 0.09314701 0.13167064 -0.04196485 0.25938717 0.26907915 0.15287153 0.04513385
0.036608554 0.30953795 0.20436336 -0.12027944 -0.19721238 0.011353629 0.08796324 0.13932456
-0.22173254 -0.16529599 -0.23387425 0.22230886 0.07474404 0.26702106 -0.039699484 -0.16028638
0.16588014 0.16209246 -0.2103472 -0.4091667 -0.13742107 -0.19132632 -0.53856677 -0.6927687
-0.2123111 0.15996002 -0.50527394 -0.47624853 -0.10292544 0.2030954 0.29961 -0.12623723
-0.0067312922 0.34351903 0.4198119 0.15434775 0.30578718 0.31611392 0.16580282 0.10212312
0.013275938 -0.11046365 0.040994972 0.19573805 0.17019713 0.06780687 -0.2978042 -0.16533846
0.057061806 0.20974109 0.24605492 -0.22151655 -0.368966 -0.36562982 -0.3636313 -0.03943251
0.049753457 -0.07650003 -0.20286581 -0.15478593 -0.2762847 0.01661847 -0.1217467 -0.277595
-0.3066931 -0.099703595 0.21293165 0.050881814 -0.29315272 -0.2165909 -0.24509804 0.18963826
0.14784269 0.011236223 -0.14171001 -0.2280783 0.035545114 0.20835872 0.1961929 0.11114482
0.29959515 0.026745213 0.28853017 0.35566798 0.3457572 0.23660508
00000000: 8cb1 ea3d 133f 82bc a282 603d 659a 713e
00000010: 1f9f 7e3b cf77 973e dc86 0839 ced5 84bb
00000020: 9480 fc3c 0ac6 a23d 9f7f 7bbd 4d25 46be
00000030: cc02 f2be e449 4abe f9fb 2abe 3c84 b3bb
00000040: 6340 cbbd 4021 1dbd f86b f7bd 123a cabc
00000050: d7b0 733e 5772 893e ebac 7e3e 47db 213e
00000060: 3444 673d 24e5 0a3e e32d 1d3e 20e0 d63d
00000070: fdd7 d33d a507 25be 07db 673e 4331 463e
00000080: 6f03 e63d e438 973d f8a2 f9bc dce7 793d
00000090: 1010 5a3e 1de6 c43d 9b97 a9bd 4f4c 903d
000000a0: 592a bbbd 59e5 183e 641a 1c3e 9d67 b6bb
000000b0: 2f53 403e 3524 0a3e 6372 463e 70cb 6e3d
000000c0: 9bd2 be3d 0d58 423e adca 8b3e ee22 053e
000000d0: 455a bd3d ab65 4a3e 8f7c 503e 90d1 7d3e
000000e0: adc7 353e dcc3 be3d abd4 063e 56e3 2bbd
000000f0: 65ce 843e bec4 893e 5b8a 1c3e 46de 383d
00000100: daf2 153d c27b 9e3e a144 513e 1155 f6bd
00000110: 0bf2 49be 9204 3a3c 1226 b43d 19ab 0e3e
00000120: db0d 63be 5a43 29be bb7c 6fbe efa4 633e
00000130: 6713 993d fcb6 883e ed9b 22bd 1d22 24be
00000140: 7cdc 293e 91fb 253e 4265 57be 4c7e d1be
00000150: 1cb8 0cbe 0ceb 43be 83df 09bf 4a59 31bf
00000160: 1568 59be 8fcc 233e a259 01bf d9d6 f3be
00000170: 93ca d2bd 3ef8 4f3e 7b66 993e 5544 01be
00000180: 2c92 dcbb bae1 af3e 96f1 d63e 560d 1e3e
00000190: 2390 9c3e afd9 a13e 37c8 293e ed25 d13d
000001a0: 5283 593c c43a e2bd 58ea 273d 8e6f 483e
000001b0: 2848 2e3e 54de 8a3d cb79 98be 7c4e 29be
000001c0: a4b9 693d 5ec6 563e d2f5 7b3e 3cd5 62be
000001d0: 1de9 bcbe d533 bbbe e22d babe fc83 21bd
000001e0: 48ca 4b3d 0cac 9cbd 0ebc 4fbe 3480 1ebe
000001f0: 3075 8dbe 7523 883c 5556 f9bd ef20 8ebe
00000200: e106 9dbe 6631 ccbd c10a 5a3e 7369 503d
00000210: 1d18 96be 01ca 5dbe fbfa 7abe 8830 423e
00000220: 1364 173e 2318 383c 6e1c 11be 5c8d 69be
00000230: c197 113d fd5b 553e cbe6 483e e59f e33d
00000240: 8964 993e c718 db3c 3aba 933e 1d1a b63e
00000250: 1607 b13e 9a48 723e

mu f4 [6]
-0.013887346 -0.0071118176 0.00086703 0.095257476 0.15449731 0.028668696
00000000: c087 63bc 400a e9bb 6649 633a 5a16 c33d
00000010: 8b34 1e3e 9dda ea3c

rho f4 [6]
-6.1117926 -6.1151323 -6.063292 -6.053459 -6.095966 -5.94672
00000000: ce93 c3c0 2aaf c3c0 7d06 c2c0 f0b5 c1c0
00000010: 2712 c3c0 884b bec0

eps_w f4 [6]
0.40226898 0.44113535 -0.98983 -0.31034672 -0.018670222 -0.107868634
00000000: 33f6 cd3e 7edc e13e 8065 7dbf c4e5 9ebe
00000010: 4bf2 98bc 3bea dcbd

sigma f4 [6]
0.002214121 0.0022067467 0.0023240258 0.0023469636 0.0022494022 0.0026109896
00000000: c91a 113b 119f 103b af4e 183b 84cf 193b
00000010: b56a 133b 231d 2b3b

w f4 [6]
-0.012996674 -0.0061383434 -0.0014333605 0.09452911 0.15445532 0.028387053
00000000: 00f0 54bc 2824 c9bb 99df bbba 7a98 c13d
00000010: 8929 1e3e f78b e83c

weight_mu f4 [16, 6, 5, 5]
-0.042004522 -0.047436073 -0.08786722 0.031344227 0.024270901 -0.116768315 -0.034787323 0.11249075
0.12522581 0.15149589 -0.111393854 -0.06389185 0.104680754 0.036297582 0.005947784 -0.08572904
0.02734479 -0.01603167 0.07132886 -0.050061233 0.008131306 0.01606273 0.27840003 0.14822656
0.1395522 0.06790123 0.042386368 -0.05557551 -0.10852591 -0.190099 -0.006274038 -0.04238639
0.105386734 -0.1482946 -0.055791233 -0.027927062 -0.055280842 -0.073062286 -0.016029097 -0.027048133
-0.059501015 0.027805693 0.0060191234 0.22031759 0.1255657 0.024084412 -0.112854056 0.05100809
-0.11350794 0.16311878 0.07192463 0.16433094 0.048421554 0.23196505 0.08016502 0.007845022
0.0049246564 0.0038843914 -0.28571638 -0.33338633 0.08068103 -0.011560454 -0.15517913 -0.11838022
-0.06588805 0.11096839 -0.11145475 0.049970984 0.1744264 0.087066226 0.061723933 -0.07923996
-0.14581244 0.15266865 -0.18777488 0.14894502 -0.15189667 -0.03368872 0.014737383 -0.11291212
-0.056529325 0.1230892 0.038192067 0.1670625 0.2818419 0.08793418 0.029287204 0.34127694
0.294216 0.15379336 -0.24558826 -0.1796607 0.013888284 -0.23413187 -0.17559612 0.06485334
-0.043534752 -0.19495928 0.0017003114 -0.020998685 -0.120330356 -0.031334102 0.13528563 0.09082551
0.11831425 -0.15043901 -0.13093083 -0.051752277 -0.13041052 -0.034330424 -0.11134185 -0.048313037
-0.18213712 -0.29642156 -0.051408544 -0.2709393 -0.1503889 0.21802954 0.2517312 -0.111381456
0.042644978 -0.1637872 0.31098098 0.22588147 -0.01882071 -0.12666361 -0.09811605 -0.19522925
-0.016709438 -0.29125115 -0.108860575 -0.13670483 0.10944566 -0.15326731 0.06722728 0.081322595
0.16674148 0.08501209 0.36267197 0.15579598 -0.01213863 -0.15714325 0.042437132 -0.032159075
0.031897552 -0.17069063 -0.20648855 -0.11989497 -0.10193628 -0.1418438 -0.007836657 0.12806383
0.25222725 0.014928766 0.14411111 0.22219183 0.17439438 -0.107069276 0.07361748 -0.11350219
0.19007652 0.101887785 0.015582421 -0.13978827 -0.20698486 0.24047317 -0.08651365 0.09536009
-0.17495327 0.10416184 -0.124878585 -0.013851996 0.21855338 0.19636227 -0.03863539 -0.12357495
-0.009513337 0.17664 -0.098472014 -0.09222093 -0.005535 0.083224125 0.0228806 0.007647449
-0.007949724 -0.084818505 -0.0005070593 0.102845624 0.27745396 0.02443265 -0.16819033 0.021963833
0.12412726 0.021916965 -0.07286004 0.06519668 0.020224113 0.047537126 -0.03179886 -0.07637687
0.102266654 -0.10512585 -0.12515688 -0.21717519 0.059355397 -0.12792033 -0.015115505 -0.09699985
-0.058688566 0.08397587 -0.09885283 -0.027199598 0.18343762 0.012799866 -0.043428943 -0.028603526
0.093786545 0.09870495 0.13885196 0.1492056 0.14710902 0.1451554 0.14684184 -0.0025770315
-0.32724983 0.0062407223 -0.104423866 -0.12374223 -0.28753647 -0.32290345 -0.15142158 0.19615072
-0.04111824 0.01708961 -0.2749272 0.119583 0.11067398 0.0422241 0.044070303 -0.2746438
0.20928791 0.29296023 0.2768998 0.03317434 -0.27039045 -0.025738081 0.035050415 0.030272743
0.03633989 0.059371468 0.06327561 0.061313957 0.02321034 0.17401966 0.14557724 0.06700136
00000000: ef0c 2cbd 544c 42bd bbf3 b3bd ce62 003d
00000010: c5d3 c63c 3a24 efbd 277d 0ebd 8d61 e63d
00000020: 323b 003e bd21 1b3e 7622 e4bd bbd9 82bd
00000030: dd62 d63d c6ac 143d a1e5 c23b b592 afbd
00000040: 2e02 e03c d954 83bc de14 923d 020d 4dbd
00000050: 2b39 053c fd95 833c 738a 8e3e b4c8 173e
00000060: c6e6 0e3e cd0f 8b3d 549d 2d3d 25a3 63bd
00000070: d542 debd 50a9 42be 7296 cdbb 5a9d 2dbd
00000080: 00d5 d73d 8ada 17be 5985 64bd 4bc7 e4bc
00000090: 2a6e 62bd aea1 95bd 744f 83bc 0c94 ddbc
000000a0: 56b7 73bd c4c8 e33c 113c c53b ef9a 613e
000000b0: 4b94 003e ac4c c53c 0720 e7bd dced 503d
000000c0: da76 e8bd 9c08 273e 384d 933d 5f46 283e
000000d0: ae55 463d 3f88 6d3e 8f2d a43d 6888 003c
000000e0: 035f a13b 4691 7e3b 6b49 92be 9db1 aabe
000000f0: 193c a53d 0f68 3dbc 47e7 1ebe 5471 f2bd
00000100: 50f0 86bd 6543 e33d 6342 e4bd 60ae 4c3d
00000110: d69c 323e c74f b23d 3cd2 7c3d 8f48 a2bd
00000120: db4f 15be 2c55 1c3e 0f48 40be 0b85 183e
00000130: cd8a 1bbe 2ffd 09bd 1175 713c 783e e7bd
00000140: 4b8b 67bd 3116 fc3d 496f 1c3d 6f12 2b3e
00000150: 954d 903e d616 b43d b8eb ef3c dabb ae3e
00000160: 7ba3 963e 027c 1d3e 7d7b 7bbe f9f8 37be
00000170: af8b 633c 44c0 6fbe 78cf 33be d4d1 843d
00000180: 7f51 32bd 68a3 47be fcdc de3a 6f05 acbc
00000190: c36f f6bd 3058 00bd 5188 0a3e ba02 ba3d
000001a0: be4e f23d af0c 1abe bb12 06be 32fa 53bd
000001b0: 568a 05be 0f9e 0cbd 3207 e4bd e4e3 45bd
000001c0: 2782 3abe 91c4 97be c491 52bd 8eb8 8abe
000001d0: 8cff 19be 2343 5f3e e9e2 803e f61b e4bd
000001e0: 80ac 2e3d d5b7 27be e638 9f3e 794d 673e
000001f0: e42d 9abc 1bb4 01be 11f1 c8bd 2dea 47be
00000200: 3be2 88bc df1e 95be 4bf2 debd 5afc 0bbe
00000210: 0c25 e03d 1bf2 1cbe 75ae 893d 768c a63d
00000220: 47be 2a3e d21a ae3d 24b0 b93e fb88 1f3e
00000230: 1be1 46bc 29ea 20be 8fd2 2d3d 3cb9 03bd
00000240: 02a7 023d 86c9 2ebe bc71 53be 7e8b f5bd
00000250: f8c3 d0bd 803f 11be 5265 00bc 2a23 033e
00000260: ee23 813e c897 743c dd91 133e 4186 633e
00000270: 7194 323e 2347 dbbd c3c4 963d d673 e8bd
00000280: 6ba3 423e 8baa d03d 694d 7f3c a824 0fbe
00000290: d7f3 53be 993e 763e 122e b1bd 274c c33d
000002a0: f326 33be ce52 d53d 58c0 ffbd 7bf3 62bc
000002b0: 75cc 5f3e 3113 493e 2540 1ebd dd14 fdbd
000002c0: d4dd 1bbc 1ee1 343e b2ab c9bd 54de bcbd
000002d0: f25e b5bb 6971 aa3d 1970 bb3c 7497 fa3b
000002e0: 8f3f 02bc 53b5 adbd 2cec 04ba baa0 d23d
000002f0: 720e 8e3e fb26 c83c 163a 2cbe 7fed b33c
00000300: 6f36 fe3d 358b b33c a537 95bd d685 853d
00000310: 0aad a53c 4ab6 423d 853f 02bd 7a6b 9cbd
00000320: 2e71 d13d 394c d7bd 2029 00be 2c63 5ebe
00000330: a51e 733d 8cfd 02be 06a7 77bc dba7 c6bd
00000340: 6c63 70bd 8afb ab3d 5a73 cabd b1d1 debc
00000350: 12d7 3b3e 87b6 513c 8ce2 31bd f151 eabc
00000360: 2913 c03d d225 ca3d 352f 0e3e 5ac9 183e
00000370: bfa3 163e 9ea3 143e b55d 163e 6ae3 28bb
00000380: 4a8d a7be f97e cc3b 2edc d5bd 916c fdbd
00000390: fb37 93be 9a53 a5be 420e 1bbe bcdb 483e
000003a0: 9a6b 28bd 83ff 8b3c 42c3 8cbe efe7 f43d
000003b0: 0aa9 e23d 2ef3 2c3d 1083 343d 1d9e 8cbe
000003c0: 924f 563e e2fe 953e d0c5 8d3e d1e1 073d
000003d0: 9e70 8abe abd8 d2bc 0691 0f3d 8bfe f73c
000003e0: 23d9 143d 7f2f 733d a596 813d 5824 7b3d
000003f0: 9c23 be3c 3632 323e 3312 153e 0238 893d

weight_rho f4 [16, 6, 5, 5]
-6.024955 -6.005626 -5.931673 -5.997716 -5.939605 -5.9607253 -6.04465 -6.0470543
-5.931965 -5.9051414 -6.013255 -6.111816 -5.7933517 -5.876184 -6.052731 -6.129899
-5.987302 -5.7903366 -6.005195 -5.9931216 -6.0621357 -6.008839 -6.0261984 -5.9070873
-5.831338 -6.010333 -5.7318873 -6.0244274 -5.946182 -6.037457 -6.199562 -6.0553656
-5.9511023 -6.026991 -6.047629 -5.945707 -5.9758196 -5.9468846 -6.1906986 -6.060388
-5.958399 -5.952543 -5.801572 -6.0805016 -6.050871 -6.0551577 -5.9029527 -5.9871264
-5.992151 -5.996376 -6.109816 -6.090621 -5.926221 -5.998167 -6.2010913 -5.9051375
-6.0475245 -5.9685197 -6.0666046 -5.854473 -6.001357 -6.0556483 -6.090335 -6.0733747
-6.130774 -6.0373497 -6.111164 -5.9420753 -5.9633155 -6.006608 -6.1822963 -5.9486837
-5.902229 -6.1003013 -5.9047275 -6.1423483 -6.064844 -5.989212 -6.088162 -6.016116
-5.983935 -5.9719663 -5.89133 -5.963112 -6.003304 -6.1458993 -5.89958 -6.078652
-6.0165086 -5.739662 -6.181459 -6.0250654 -5.939884 -6.079849 -6.2497897 -6.03936
-5.829146 -6.0373693 -5.997035 -6.2719083 -6.0570045 -5.873603 -6.090161 -5.9805655
-6.0947924 -6.006429 -6.004046 -5.823484 -5.9846425 -6.064247 -6.152999 -5.8937693
-5.9495406 -5.8746667 -6.168805 -6.0826316 -5.9841666 -5.933068 -6.08175 -6.1923594
-5.9408646 -5.8887987 -5.936495 -6.0657253 -6.0894747 -6.070321 -6.0798626 -6.0760145
-5.923183 -5.9593463 -6.0311384 -5.9283323 -6.145263 -5.9908915 -6.053681 -5.878368
-6.2064643 -6.055647 -6.018967 -6.0343056 -6.048292 -6.0110226 -5.864961 -6.014877
-6.06155 -5.9233065 -5.9734344 -6.0764503 -5.993195 -6.131395 -6.082025 -6.070446
-6.109191 -5.8324904 -5.895949 -5.883543 -6.0989594 -5.850317 -6.061129 -6.030888
-6.118181 -5.916415 -6.043807 -6.092605 -6.2142434 -5.9546924 -6.073367 -6.066384
-6.1844 -5.9629974 -6.1517158 -5.935763 -5.883127 -5.8158207 -5.993965 -6.0788107
-6.151273 -6.159363 -6.0740833 -6.1163926 -5.9695444 -6.0698094 -6.089284 -6.1248183
-5.9909115 -6.1551805 -5.952467 -6.0805435 -5.997123 -5.9546437 -6.041279 -6.2519107
-5.9187183 -5.8045254 -5.9160247 -6.0024276 -5.998349 -6.224914 -5.9562283 -6.006808
-5.904587 -6.0828595 -6.01799 -6.0985255 -6.0306616 -5.95264 -6.1843348 -6.088271
-5.840514 -5.895635 -6.1524196 -6.1901093 -5.9989586 -6.0423794 -6.100226 -5.8202276
-5.9424353 -6.241205 -6.075313 -6.1730556 -5.979857 -5.9848733 -6.004031 -6.058881
-6.1218696 -5.8537073 -6.1329455 -5.9811606 -5.8569202 -5.98685 -5.9589663 -6.074172
-6.089308 -5.948203 -5.8550677 -5.8481603 -5.9317937 -6.057068 -6.2183323 -5.864838
-6.17414 -5.91535 -6.1275034 -6.01164 -5.945258 -6.016271 -6.155648 -6.1671667
-6.0034266 -6.130092 -6.1702075 -5.9622607 -6.193252 -5.8866634 -6.054159 -6.069377
00000000: 6ecc c0c0 172e c0c0 44d0 bdc0 4aed bfc0
00000010: 3f11 bec0 43be bec0 c66d c1c0 7881 c1c0
00000020: a8d2 bdc0 ebf6 bcc0 966c c0c0 ff93 c3c0
00000030: 2363 b9c0 b309 bcc0 f9af c1c0 2228 c4c0
00000040: fa97 bfc0 704a b9c0 8f2a c0c0 a7c7 bfc0
00000050: 04fd c1c0 6948 c0c0 9ed6 c0c0 dc06 bdc0
00000060: 529a bac0 a654 c0c0 9f6b b7c0 1cc8 c0c0
00000070: 1f47 bec0 d932 c1c0 d062 c6c0 8ec5 c1c0
00000080: 6e6f bec0 1cdd c0c0 2d86 c1c0 3b43 bec0
00000090: ea39 bfc0 e14c bec0 341a c6c0 b3ee c1c0
000000a0: 34ab bec0 3b7b bec0 7aa6 b9c0 7893 c2c0
000000b0: bca0 c1c0 dac3 c1c0 fde4 bcc0 8a96 bfc0
000000c0: b3bf bfc0 50e2 bfc0 9d83 c3c0 5ee6 c2c0
000000d0: 9aa3 bdc0 fcf0 bfc0 576f c6c0 e3f6 bcc0
000000e0: 5285 c1c0 1dfe bec0 a021 c2c0 d857 bbc0
000000f0: 1e0b c0c0 dfc7 c1c0 06e4 c2c0 1659 c2c0
00000100: 4d2f c4c0 f831 c1c0 a88e c3c0 7b25 bec0
00000110: 7bd3 bec0 2236 c0c0 5fd5 c5c0 9e5b bec0
00000120: 0fdf bcc0 ab35 c3c0 87f3 bcc0 1e8e c4c0
00000130: 3413 c2c0 a0a7 bfc0 39d2 c2c0 0684 c0c0
00000140: 657c bfc0 591a bfc0 c685 bcc0 d0d1 bec0
00000150: 111b c0c0 35ab c4c0 5cc9 bcc0 5184 c2c0
00000160: 3d87 c0c0 50ab b7c0 83ce c5c0 56cd c0c0
00000170: 8813 bec0 1f8e c2c0 47fe c7c0 7042 c1c0
00000180: 5d88 bac0 2132 c1c0 b6e7 bfc0 79b3 c8c0
00000190: fbd2 c1c0 8ef4 bbc0 99e2 c2c0 cb60 bfc0
000001a0: 8a08 c3c0 ab34 c0c0 2521 c0c0 fb59 bac0
000001b0: 3182 bfc0 500e c2c0 5ee5 c4c0 c299 bcc0
000001c0: a362 bec0 45fd bbc0 da66 c5c0 eba4 c2c0
000001d0: 4b7e bfc0 b1db bdc0 b29d c2c0 cf27 c6c0
000001e0: 901b bec0 0a71 bcc0 c4f7 bdc0 6c1a c2c0
000001f0: fadc c2c0 1240 c2c0 3c8e c2c0 b66e c2c0
00000200: b78a bdc0 f7b2 bec0 16ff c0c0 e6b4 bdc0
00000210: ffa5 c4c0 62b5 bfc0 c1b7 c1c0 971b bcc0
00000220: 5b9b c6c0 dcc7 c1c0 619b c0c0 0819 c1c0
00000230: 9c8b c1c0 4c5a c0c0 c3ad bbc0 df79 c0c0
00000240: 38f8 c1c0 ba8b bdc0 6026 bfc0 4872 c2c0
00000250: 41c8 bfc0 6334 c4c0 f39f c2c0 1841 c2c0
00000260: 7e7e c3c0 c3a3 bac0 9dab bcc0 fc45 bcc0
00000270: ad2a c3c0 cc35 bbc0 c5f4 c1c0 09fd c0c0
00000280: 24c8 c3c0 4653 bdc0 de66 c1c0 9ff6 c2c0
00000290: 15db c6c0 d78c bec0 0659 c2c0 d11f c2c0
000002a0: 9be6 c5c0 e0d0 bec0 dbda c4c0 c5f1 bdc0
000002b0: 9442 bcc0 341b bac0 90ce bfc0 9e85 c2c0
000002c0: 3ad7 c4c0 8019 c5c0 e45e c2c0 7db9 c3c0
000002d0: 8206 bfc0 e13b c2c0 6adb c2c0 83fe c3c0
000002e0: 8cb5 bfc0 3df7 c4c0 9c7a bec0 d093 c2c0
000002f0: 6ee8 bfc0 718c bec0 2852 c1c0 a70f c8c0
00000300: 2466 bdc0 acbe b9c0 1350 bdc0 e313 c0c0
00000310: 7af2 bfc0 7f32 c7c0 6c99 bec0 c537 c0c0
00000320: 60f2 bcc0 c9a6 c2c0 6093 c0c0 1f27 c3c0
00000330: 2efb c0c0 077c bec0 12e6 c5c0 1ed3 c2c0
00000340: 7ee5 bac0 0ba9 bcc0 9fe0 c4c0 6015 c6c0
00000350: 78f7 bfc0 2c5b c1c0 0d35 c3c0 4e3f bac0
00000360: 6e28 bec0 f4b7 c7c0 f768 c2c0 ac89 c5c0
00000370: fd5a bfc0 1584 bfc0 0621 c0c0 5ae2 c1c0
00000380: 5be6 c3c0 9251 bbc0 1741 c4c0 ab65 bfc0
00000390: e46b bbc0 4694 bfc0 daaf bec0 9e5f c2c0
000003a0: 9cdb c2c0 ae57 bec0 b75c bbc0 2124 bbc0
000003b0: 41d1 bdc0 80d3 c1c0 94fc c6c0 c1ac bbc0
000003c0: 8e92 c5c0 8c4a bdc0 8214 c4c0 5b5f c0c0
000003d0: 8e3f bec0 4b85 c0c0 12fb c4c0 6e59 c5c0
000003e0: 121c c0c0 b729 c4c0 5772 c5c0 d7ca bec0
000003f0: 1f2f c6c0 8c5f bcc0 acbb c1c0 5638 c2c0

bias_mu f4 [16]
-0.022801382 0.06354137 -0.15723972 0.05534374 0.01816826 0.11897175 0.10047892 0.1370251
-0.19890359 -0.056250945 0.23350678 -0.046527144 0.36307493 0.092362 0.09927777 0.098097295
00000000: f7c9 babc fa21 823d 7303 21be 1eb0 623d
00000010: 9ad5 943c 76a7 f33d e4c7 cd3d 4f50 0c3e
00000020: 62ad 4bbe 6467 66bd 671c 6f3e 3f93 3ebd
00000030: f5e4 b93e 4a28 bd3d 2552 cb3d 3ce7 c83d

bias_rho f4 [16]
-5.9670906 -6.070958 -6.0370264 -6.0442715 -5.9276004 -5.8951783 -5.852074 -6.017685
-6.0504107 -5.787147 -6.113733 -6.1095877 -5.974819 -6.080337 -5.83953 -6.0801625
00000000: 68f2 bec0 4a45 c2c0 522f c1c0 ac6a c1c0
00000010: e7ae bdc0 4da5 bcc0 3144 bbc0 e090 c0c0
00000020: f79c c1c0 4f30 b9c0 b3a3 c3c0 be81 c3c0
00000030: b831 bfc0 1f92 c2c0 6edd bac0 b190 c2c0

mu f4 [16, 6, 5, 5]
-0.042004522 -0.047436073 -0.08786722 0.031344227 0.024270901 -0.116768315 -0.034787323 0.11249075
0.12522581 0.15149589 -0.111393854 -0.06389185 0.104680754 0.036297582 0.005947784 -0.08572904
0.02734479 -0.01603167 0.07132886 -0.050061233 0.008131306 0.01606273 0.27840003 0.14822656
0.1395522 0.06790123 0.042386368 -0.05557551 -0.10852591 -0.190099 -0.006274038 -0.04238639
0.105386734 -0.1482946 -0.055791233 -0.027927062 -0.055280842 -0.073062286 -0.016029097 -0.027048133
-0.059501015 0.027805693 0.0060191234 0.22031759 0.1255657 0.024084412 -0.112854056 0.05100809
-0.11350794 0.16311878 0.07192463 0.16433094 0.048421554 0.23196505 0.08016502 0.007845022
0.0049246564 0.0038843914 -0.28571638 -0.33338633 0.08068103 -0.011560454 -0.15517913 -0.11838022
-0.06588805 0.11096839 -0.11145475 0.049970984 0.1744264 0.087066226 0.061723933 -0.07923996
-0.14581244 0.15266865 -0.18777488 0.14894502 -0.15189667 -0.03368872 0.014737383 -0.11291212
-0.056529325 0.1230892 0.038192067 0.1670625 0.2818419 0.08793418 0.029287204 0.34127694
0.294216 0.15379336 -0.24558826 -0.1796607 0.013888284 -0.23413187 -0.17559612 0.06485334
-0.043534752 -0.19495928 0.0017003114 -0.020998685 -0.120330356 -0.031334102 0.13528563 0.09082551
0.11831425 -0.15043901 -0.13093083 -0.051752277 -0.13041052 -0.034330424 -0.11134185 -0.048313037
-0.18213712 -0.29642156 -0.051408544 -0.2709393 -0.1503889 0.21802954 0.2517312 -0.111381456
0.042644978 -0.1637872 0.31098098 0.22588147 -0.01882071 -0.12666361 -0.09811605 -0.19522925
-0.016709438 -0.29125115 -0.108860575 -0.13670483 0.10944566 -0.15326731 0.06722728 0.081322595
0.16674148 0.08501209 0.36267197 0.15579598 -0.01213863 -0.15714325 0.042437132 -0.032159075
0.031897552 -0.17069063 -0.20648855 -0.11989497 -0.10193628 -0.1418438 -0.007836657 0.12806383
0.25222725 0.014928766 0.14411111 0.22219183 0.17439438 -0.107069276 0.07361748 -0.11350219
0.19007652 0.101887785 0.015582421 -0.13978827 -0.20698486 0.24047317 -0.08651365 0.09536009
-0.17495327 0.10416184 -0.124878585 -0.013851996 0.21855338 0.19636227 -0.03863539 -0.12357495
-0.009513337 0.17664 -0.098472014 -0.09222093 -0.005535 0.083224125 0.0228806 0.007647449
-0.007949724 -0.084818505 -0.0005070593 0.102845624 0.27745396 0.02443265 -0.16819033 0.021963833
0.12412726 0.021916965 -0.07286004 0.06519668 0.020224113 0.047537126 -0.03179886 -0.07637687
0.102266654 -0.10512585 -0.12515688 -0.21717519 0.059355397 -0.12792033 -0.015115505 -0.09699985
-0.058688566 0.08397587 -0.09885283 -0.027199598 0.18343762 0.012799866 -0.043428943 -0.028603526
0.093786545 0.09870495 0.13885196 0.1492056 0.14710902 0.1451554 0.14684184 -0.0025770315
-0.32724983 0.0062407223 -0.104423866 -0.12374223 -0.28753647 -0.32290345 -0.15142158 0.19615072
-0.04111824 0.01708961 -0.2749272 0.119583 0.11067398 0.0422241 0.044070303 -0.2746438
0.20928791 0.29296023 0.2768998 0.03317434 -0.27039045 -0.025738081 0.035050415 0.030272743
0.03633989 0.059371468 0.06327561 0.061313957 0.02321034 0.17401966 0.14557724 0.06700136
00000000: ef0c 2cbd 544c 42bd bbf3 b3bd ce62 003d
00000010: c5d3 c63c 3a24 efbd 277d 0ebd 8d61 e63d
00000020: 323b 003e bd21 1b3e 7622 e4bd bbd9 82bd
00000030: dd62 d63d c6ac 143d a1e5 c23b b592 afbd
00000040: 2e02 e03c d954 83bc de14 923d 020d 4dbd
00000050: 2b39 053c fd95 833c 738a 8e3e b4c8 173e
00000060: c6e6 0e3e cd0f 8b3d 549d 2d3d 25a3 63bd
00000070: d542 debd 50a9 42be 7296 cdbb 5a9d 2dbd
00000080: 00d5 d73d 8ada 17be 5985 64bd 4bc7 e4bc
00000090: 2a6e 62bd aea1 95bd 744f 83bc 0c94 ddbc
000000a0: 56b7 73bd c4c8 e33c 113c c53b ef9a 613e
000000b0: 4b94 003e ac4c c53c 0720 e7bd dced 503d
000000c0: da76 e8bd 9c08 273e 384d 933d 5f46 283e
000000d0: ae55 463d 3f88 6d3e 8f2d a43d 6888 003c
000000e0: 035f a13b 4691 7e3b 6b49 92be 9db1 aabe
000000f0: 193c a53d 0f68 3dbc 47e7 1ebe 5471 f2bd
00000100: 50f0 86bd 6543 e33d 6342 e4bd 60ae 4c3d
00000110: d69c 323e c74f b23d 3cd2 7c3d 8f48 a2bd
00000120: db4f 15be 2c55 1c3e 0f48 40be 0b85 183e
00000130: cd8a 1bbe 2ffd 09bd 1175 713c 783e e7bd
00000140: 4b8b 67bd 3116 fc3d 496f 1c3d 6f12 2b3e
00000150: 954d 903e d616 b43d b8eb ef3c dabb ae3e
00000160: 7ba3 963e 027c 1d3e 7d7b 7bbe f9f8 37be
00000170: af8b 633c 44c0 6fbe 78cf 33be d4d1 843d
00000180: 7f51 32bd 68a3 47be fcdc de3a 6f05 acbc
00000190: c36f f6bd 3058 00bd 5188 0a3e ba02 ba3d
000001a0: be4e f23d af0c 1abe bb12 06be 32fa 53bd
000001b0: 568a 05be 0f9e 0cbd 3207 e4bd e4e3 45bd
000001c0: 2782 3abe 91c4 97be c491 52bd 8eb8 8abe
000001d0: 8cff 19be 2343 5f3e e9e2 803e f61b e4bd
000001e0: 80ac 2e3d d5b7 27be e638 9f3e 794d 673e
000001f0: e42d 9abc 1bb4 01be 11f1 c8bd 2dea 47be
00000200: 3be2 88bc df1e 95be 4bf2 debd 5afc 0bbe
00000210: 0c25 e03d 1bf2 1cbe 75ae 893d 768c a63d
00000220: 47be 2a3e d21a ae3d 24b0 b93e fb88 1f3e
00000230: 1be1 46bc 29ea 20be 8fd2 2d3d 3cb9 03bd
00000240: 02a7 023d 86c9 2ebe bc71 53be 7e8b f5bd
00000250: f8c3 d0bd 803f 11be 5265 00bc 2a23 033e
00000260: ee23 813e c897 743c dd91 133e 4186 633e
00000270: 7194 323e 2347 dbbd c3c4 963d d673 e8bd
00000280: 6ba3 423e 8baa d03d 694d 7f3c a824 0fbe
00000290: d7f3 53be 993e 763e 122e b1bd 274c c33d
000002a0: f326 33be ce52 d53d 58c0 ffbd 7bf3 62bc
000002b0: 75cc 5f3e 3113 493e 2540 1ebd dd14 fdbd
000002c0: d4dd 1bbc 1ee1 343e b2ab c9bd 54de bcbd
000002d0: f25e b5bb 6971 aa3d 1970 bb3c 7497 fa3b
000002e0: 8f3f 02bc 53b5 adbd 2cec 04ba baa0 d23d
000002f0: 720e 8e3e fb26 c83c 163a 2cbe 7fed b33c
00000300: 6f36 fe3d 358b b33c a537 95bd d685 853d
00000310: 0aad a53c 4ab6 423d 853f 02bd 7a6b 9cbd
00000320: 2e71 d13d 394c d7bd 2029 00be 2c63 5ebe
00000330: a51e 733d 8cfd 02be 06a7 77bc dba7 c6bd
00000340: 6c63 70bd 8afb ab3d 5a73 cabd b1d1 debc
00000350: 12d7 3b3e 87b6 513c 8ce2 31bd f151 eabc
00000360: 2913 c03d d225 ca3d 352f 0e3e 5ac9 183e
00000370: bfa3 163e 9ea3 143e b55d 163e 6ae3 28bb
00000380: 4a8d a7be f97e cc3b 2edc d5bd 916c fdbd
00000390: fb37 93be 9a53 a5be 420e 1bbe bcdb 483e
000003a0: 9a6b 28bd 83ff 8b3c 42c3 8cbe efe7 f43d
000003b0: 0aa9 e23d 2ef3 2c3d 1083 343d 1d9e 8cbe
000003c0: 924f 563e e2fe 953e d0c5 8d3e d1e1 073d
000003d0: 9e70 8abe abd8 d2bc 0691 0f3d 8bfe f73c
000003e0: 23d9 143d 7f2f 733d a596 813d 5824 7b3d
000003f0: 9c23 be3c 3632 323e 3312 153e 0238 893d
