Q3/model_pkl_3.pkl (torch, 922961 bytes, 70 tensors)

weight_mu f4 [6, 1, 5, 5]
-0.0047881347 -0.13127375 -0.00773377 0.00292427 0.11705062 0.07148748 -0.03421093 0.12052476
0.23667212 0.26662752 0.088552445 0.08117079 0.021260252 0.083217666 0.034874972 0.07802542
0.32347277 -0.037064184 0.045795877 -0.018291011 0.13155572 -0.052433614 -0.19640084 -0.17036267
0.015104536 -0.11810836 -0.25699556 -0.30671751 -0.11153166 0.11999142 -0.0041624815 0.18136905
0.16615823 0.23929317 0.1558781 0.04648691 0.038344715 0.16817503 0.15984195 -0.020595903
0.102793105 0.081461795 0.11023646 0.045607068 0.04722062 0.19308183 0.15310226 0.15185563
0.009360713 -0.038296964 -0.074040495 -0.2408154 -0.01557004 0.18672666 0.15618904 -0.30178723
0.062198095 0.20246746 0.039663788 0.063654825 0.03968018 0.020804603 0.053591255 0.09688634
0.26127565 -0.053234965 0.020618087 0.022821872 0.19332461 0.080374725 -0.04173602 -0.02664383
0.100983076 0.19586298 0.050589547 -0.0038299512 0.23552597 0.120673165 -0.1334225 0.0041056345
0.056692414 0.21917649 0.23301949 0.24613632 0.059440684 0.040246848 -0.05508758 0.018161183
0.1616322 -0.07067943 -0.09405368 -0.23117332 -0.049884167 -0.26891407 0.29465717 -0.045818366
-0.077311404 -0.065459095 0.27066982 0.011806708 0.21991083 -0.16757737 -0.14255747 -0.0006735817
0.19864738 0.188575 -0.2204064 -0.17093007 -0.019970298 0.20853578 0.026340123 -0.39120942
-0.23630996 0.122732215 0.23143794 -0.12780526 -0.2058305 -0.11298518 0.17788614 0.19255544
-0.07330368 -0.14970016 -0.08186943 0.20713313 0.07226443 0.16919802 0.15205835 0.32710382
0.27004877 0.20766436 0.26612604 0.06382806 0.10541049 -0.0094798235 0.24441466 -0.10132567
0.021093037 0.00859303 -0.14491516 -0.09596223 -0.3573651 -0.28737065 -0.35731864 -0.04409752
-0.051401217 -0.083775 -0.17729847 -0.10983738 -0.09575775 -0.15240945
00000000: c9e5 9cbb a06c 06be 916b fdbb 1ca5 3f3b
00000010: 3cb8 ef3d 0768 923d c320 0cbd afd5 f63d
00000020: 2d5a 723e 6783 883e fc5a b53d df3c a63d
00000030: fb29 ae3c 066e aa3d 0fd9 0e3d cbcb 9f3d
00000040: 399e a53e 9dd0 17bd 7594 3b3d 08d7 95bc
00000050: 8bb6 063e a1c4 56bd 4d1d 49be 8d73 2ebe
00000060: 0479 773c cce2 f1bd ec94 83be 140a 9dbe
00000070: b66a e4bd 10be f53d 6d65 88bb cfb8 393e
00000080: 6225 2a3e 4509 753e 829e 1f3e 0f69 3e3d
00000090: 590f 1d3d 1336 2c3e 9cad 233e bdb8 a8bc
000000a0: 3185 d23d 71d5 a63d a7c3 e13d 7ace 3a3d
000000b0: 696a 413d 3eb7 453e d7c6 1c3e 0b80 1b3e
000000c0: ad5d 193c 47dd 1cbd 8ba2 97bd 5098 76be
000000d0: 7b19 7fbc 4635 3f3e 05f0 1f3e db83 9abe
000000e0: 6ec3 7e3d a153 4f3e 7f76 223d 765d 823d
000000f0: af87 223d 6a6e aa3c 8182 5b3d 586c c63d
00000100: ecc5 853e e80c 5abd 43e7 a83c eff4 ba3c
00000110: e3f6 453e 819b a43d 64f3 2abd 2944 dabc
00000120: 37d0 ce3d 4e90 483e fc36 4f3d ebff 7abb
00000130: b82d 713e 7e23 f73d e89f 08be 8f88 863b
00000140: 4e36 683d cd6f 603e a99c 6e3e 290b 7c3e
00000150: 1378 733d e1d9 243d 84a3 61bd c3c6 943c
00000160: e982 253e 61c0 90bd 379f c0bd b3b8 6cbe
00000170: 5753 4cbd 1baf 89be 4edd 963e 0aac 3bbd
00000180: 7155 9ebd 6b0f 86bd 3c95 8a3e ec70 413c
00000190: 4e30 613e 6799 2bbe 96fa 11be 4d93 30ba
000001a0: 386a 4b3e ce19 413e 37b2 61be 4b08 2fbe
000001b0: c098 a3bc 678a 553e 3ec7 d73c 9a4c c8be
000001c0: 3dfb 71be 075b fb3d 11fe 6c3e 62df 02be
000001d0: 3bc5 52be c664 e7bd c927 363e 412d 453e
000001e0: 3d20 96bd 004b 19be 29ab a7bd b51a 543e
000001f0: 60ff 933d 3f42 2d3e 2fb5 1b3e 277a a73e
00000200: d543 8a3e f7a5 543e ac41 883e 49b8 823d
00000210: 74e1 d73d 4351 1bbc d647 7a3e d583 cfbd
00000220: 4ecb ac3c c8c9 0c3c a464 14be d887 c4bd
00000230: 8ff8 b6be 3f22 93be 78f2 b6be 9a9f 34bd
00000240: 158a 52bd 3a92 abbd bb8d 35be 6cf2 e0bd
00000250: a41c c4bd 3911 1cbe

weight_rho f4 [6, 1, 5, 5]
-6.2778525 -6.094497 -5.86959 -6.0312543 -5.927398 -6.023881 -5.981347 -5.8874106
-6.214135 -6.007426 -5.8719077 -5.95258 -5.850291 -6.061391 -5.842549 -5.9354625
-6.141199 -5.8792386 -6.105893 -6.0407805 -5.9844093 -5.9948235 -5.975255 -6.0108247
-5.8836036 -5.912589 -6.07185 -5.993193 -6.014846 -5.9337244 -6.123543 -6.1883063
-6.1758237 -6.022187 -6.1124663 -5.8950353 -6.063271 -6.0098805 -6.1052394 -6.0937185
-6.005103 -5.9535575 -5.916906 -6.146476 -5.9335093 -5.9285436 -6.1282673 -5.762874
-6.066167 -6.0431104 -6.1200624 -5.89235 -5.953329 -6.040772 -6.1546926 -5.937406
-6.0295887 -5.956837 -5.962602 -5.9735394 -6.2386427 -6.040423 -6.024622 -6.1150064
-6.002711 -5.9511886 -5.987374 -5.918982 -5.8745165 -5.9955587 -6.0758166 -6.126344
-5.946358 -5.9561806 -6.3179917 -6.05897 -5.9500036 -5.9241233 -5.871775 -5.9480205
-6.0043106 -6.062464 -5.965877 -6.1030817 -6.07154 -6.036507 -6.0444813 -6.0532084
-6.073635 -5.980462 -6.020593 -6.0372105 -6.2771597 -6.027311 -5.8798723 -6.0064597
-5.998293 -6.275733 -6.0960164 -6.1342382 -6.0669594 -6.085079 -5.9227796 -6.06187
-6.1186094 -6.155787 -6.093214 -6.137913 -5.9973397 -5.9244027 -6.149167 -5.9084373
-6.0660534 -5.9419956 -6.1867547 -5.9894576 -6.1814504 -5.932411 -6.0725093 -5.9336615
-6.0706825 -5.9701247 -6.1022243 -6.29049 -6.0705557 -5.9813643 -5.853021 -6.2179875
-6.0254087 -6.2802634 -6.090794 -6.081919 -6.065748 -5.9180117 -6.168717 -5.9772587
-6.2650595 -5.8665223 -6.0919795 -6.1811957 -5.91735 -5.9162216 -6.0556545 -6.24902
-5.916668 -5.934404 -5.986857 -5.962138 -5.967457 -6.288919
00000000: 2be4 c8c0 1f06 c3c0 aed3 bbc0 0900 c1c0
00000010: 3fad bdc0 a2c3 c0c0 3267 bfc0 ab65 bcc0
00000020: 32da c6c0 d53c c0c0 abe6 bbc0 897b bec0
00000030: 9535 bbc0 eaf6 c1c0 29f6 bac0 4fef bdc0
00000040: b484 c4c0 b922 bcc0 7a63 c3c0 134e c1c0
00000050: 4880 bfc0 98d5 bfc0 4a35 bfc0 ad58 c0c0
00000060: 7b46 bcc0 ee33 bdc0 984c c2c0 3dc8 bfc0
00000070: 9e79 c0c0 12e1 bdc0 10f4 c3c0 9b06 c6c0
00000080: 59a0 c5c0 c2b5 c0c0 5399 c3c0 21a4 bcc0
00000090: 5106 c2c0 f150 c0c0 1f5e c3c0 beff c2c0
000000a0: ce29 c0c0 8b83 bec0 4b57 bdc0 eeaf c4c0
000000b0: 4fdf bdc0 a1b6 bdc0 c41a c4c0 7769 b8c0
000000c0: 0a1e c2c0 2961 c1c0 8dd7 c3c0 228e bcc0
000000d0: ac81 bec0 014e c1c0 3ef3 c4c0 3bff bdc0
000000e0: 64f2 c0c0 699e bec0 a3cd bec0 3c27 bfc0
000000f0: f6a2 c7c0 254b c1c0 b4c9 c0c0 22ae c3c0
00000100: 3516 c0c0 2370 bec0 9198 bfc0 4d68 bdc0
00000110: 0afc bbc0 9edb bfc0 176d c2c0 030b c4c0
00000120: 9148 bec0 0899 bec0 fd2c cac0 15e3 c1c0
00000130: 6e66 bec0 6b92 bdc0 95e5 bbc0 2f56 bec0
00000140: 5023 c0c0 b5ff c1c0 77e8 bec0 724c c3c0
00000150: 0e4a c2c0 112b c1c0 646c c1c0 e2b3 c1c0
00000160: 385b c2c0 f25f bfc0 b3a8 c0c0 d430 c1c0
00000170: 7ede c8c0 bbdf c0c0 ea27 bcc0 eb34 c0c0
00000180: 04f2 bfc0 ced2 c8c0 9112 c3c0 ae4b c4c0
00000190: 8824 c2c0 f8b8 c2c0 6987 bdc0 d7fa c1c0
000001a0: a6cb c3c0 35fc c4c0 9cfb c2c0 c969 c4c0
000001b0: 35ea bfc0 b594 bdc0 fac5 c4c0 eb11 bdc0
000001c0: 1c1d c2c0 d424 bec0 e5f9 c5c0 a3a9 bfc0
000001d0: 71ce c5c0 50d6 bdc0 ff51 c2c0 8ee0 bdc0
000001e0: 0843 c2c0 430b bfc0 6c45 c3c0 b24b c9c0
000001f0: fe41 c2c0 5667 bfc0 f34b bbc0 c1f9 c6c0
00000200: 26d0 c0c0 ebf7 c8c0 c9e7 c2c0 159f c2c0
00000210: 9c1a c2c0 5a60 bdc0 2166 c5c0 b445 bfc0
00000220: 5e7b c8c0 8dba bbc0 7ff1 c2c0 5bcc c5c0
00000230: ee5a bdc0 b051 bdc0 ecc7 c1c0 f9f7 c7c0
00000240: 5855 bdc0 a3e6 bdc0 5594 bfc0 d6c9 bec0
00000250: 68f5 bec0 d33e c9c0

bias_mu f4 [6]
-0.009118152 0.0070323073 -0.13033085 -0.0011032979 -0.0028638656 0.067208044
00000000: 4d64 15bc 456f e63b 7375 05be 899c 90ba
00000010: b1af 3bbb 5fa4 893d

bias_rho f4 [6]
-6.1687512 -6.0752373 -6.172675 -5.9633946 -6.1024156 -6.0735745
00000000: 6966 c5c0 5868 c2c0 8e86 c5c0 21d4 bec0
00000010: fd46 c3c0 b95a c2c0

mu f4 [6, 1, 5, 5]
-0.0047881347 -0.13127375 -0.00773377 0.00292427 0.11705062 0.07148748 -0.03421093 0.12052476
0.23667212 0.26662752 0.088552445 0.08117079 0.021260252 0.083217666 0.034874972 0.07802542
0.32347277 -0.037064184 0.045795877 -0.018291011 0.13155572 -0.052433614 -0.19640084 -0.17036267
0.015104536 -0.11810836 -0.25699556 -0.30671751 -0.11153166 0.11999142 -0.0041624815 0.18136905
0.16615823 0.23929317 0.1558781 0.04648691 0.038344715 0.16817503 0.15984195 -0.020595903
0.102793105 0.081461795 0.11023646 0.045607068 0.04722062 0.19308183 0.15310226 0.15185563
0.009360713 -0.038296964 -0.074040495 -0.2408154 -0.01557004 0.18672666 0.15618904 -0.30178723
0.062198095 0.20246746 0.039663788 0.063654825 0.03968018 0.020804603 0.053591255 0.09688634
0.26127565 -0.053234965 0.020618087 0.022821872 0.19332461 0.080374725 -0.04173602 -0.02664383
0.100983076 0.19586298 0.050589547 -0.0038299512 0.23552597 0.120673165 -0.1334225 0.0041056345
0.056692414 0.21917649 0.23301949 0.24613632 0.059440684 0.040246848 -0.05508758 0.018161183
0.1616322 -0.07067943 -0.09405368 -0.23117332 -0.049884167 -0.26891407 0.29465717 -0.045818366
-0.077311404 -0.065459095 0.27066982 0.011806708 0.21991083 -0.16757737 -0.14255747 -0.0006735817
0.19864738 0.188575 -0.2204064 -0.17093007 -0.019970298 0.20853578 0.026340123 -0.39120942
-0.23630996 0.122732215 0.23143794 -0.12780526 -0.2058305 -0.11298518 0.17788614 0.19255544
-0.07330368 -0.14970016 -0.08186943 0.20713313 0.07226443 0.16919802 0.15205835 0.32710382
0.27004877 0.20766436 0.26612604 0.06382806 0.10541049 -0.0094798235 0.24441466 -0.10132567
0.021093037 0.00859303 -0.14491516 -0.09596223 -0.3573651 -0.28737065 -0.35731864 -0.04409752
-0.051401217 -0.083775 -0.17729847 -0.10983738 -0.09575775 -0.15240945
00000000: c9e5 9cbb a06c 06be 916b fdbb 1ca5 3f3b
00000010: 3cb8 ef3d 0768 923d c320 0cbd afd5 f63d
00000020: 2d5a 723e 6783 883e fc5a b53d df3c a63d
00000030: fb29 ae3c 066e aa3d 0fd9 0e3d cbcb 9f3d
00000040: 399e a53e 9dd0 17bd 7594 3b3d 08d7 95bc
00000050: 8bb6 063e a1c4 56bd 4d1d 49be 8d73 2ebe
00000060: 0479 773c cce2 f1bd ec94 83be 140a 9dbe
00000070: b66a e4bd 10be f53d 6d65 88bb cfb8 393e
00000080: 6225 2a3e 4509 753e 829e 1f3e 0f69 3e3d
00000090: 590f 1d3d 1336 2c3e 9cad 233e bdb8 a8bc
000000a0: 3185 d23d 71d5 a63d a7c3 e13d 7ace 3a3d
000000b0: 696a 413d 3eb7 453e d7c6 1c3e 0b80 1b3e
000000c0: ad5d 193c 47dd 1cbd 8ba2 97bd 5098 76be
000000d0: 7b19 7fbc 4635 3f3e 05f0 1f3e db83 9abe
000000e0: 6ec3 7e3d a153 4f3e 7f76 223d 765d 823d
000000f0: af87 223d 6a6e aa3c 8182 5b3d 586c c63d
00000100: ecc5 853e e80c 5abd 43e7 a83c eff4 ba3c
00000110: e3f6 453e 819b a43d 64f3 2abd 2944 dabc
00000120: 37d0 ce3d 4e90 483e fc36 4f3d ebff 7abb
00000130: b82d 713e 7e23 f73d e89f 08be 8f88 863b
00000140: 4e36 683d cd6f 603e a99c 6e3e 290b 7c3e
00000150: 1378 733d e1d9 243d 84a3 61bd c3c6 943c
00000160: e982 253e 61c0 90bd 379f c0bd b3b8 6cbe
00000170: 5753 4cbd 1baf 89be 4edd 963e 0aac 3bbd
00000180: 7155 9ebd 6b0f 86bd 3c95 8a3e ec70 413c
00000190: 4e30 613e 6799 2bbe 96fa 11be 4d93 30ba
000001a0: 386a 4b3e ce19 413e 37b2 61be 4b08 2fbe
000001b0: c098 a3bc 678a 553e 3ec7 d73c 9a4c c8be
000001c0: 3dfb 71be 075b fb3d 11fe 6c3e 62df 02be
000001d0: 3bc5 52be c664 e7bd c927 363e 412d 453e
000001e0: 3d20 96bd 004b 19be 29ab a7bd b51a 543e
000001f0: 60ff 933d 3f42 2d3e 2fb5 1b3e 277a a73e
00000200: d543 8a3e f7a5 543e ac41 883e 49b8 823d
00000210: 74e1 d73d 4351 1bbc d647 7a3e d583 cfbd
00000220: 4ecb ac3c c8c9 0c3c a464 14be d887 c4bd
00000230: 8ff8 b6be 3f22 93be 78f2 b6be 9a9f 34bd
00000240: 158a 52bd 3a92 abbd bb8d 35be 6cf2 e0bd
00000250: a41c c4bd 3911 1cbe

rho f4 [6, 1, 5, 5]
-6.2778525 -6.094497 -5.86959 -6.0312543 -5.927398 -6.023881 -5.981347 -5.8874106
-6.214135 -6.007426 -5.8719077 -5.95258 -5.850291 -6.061391 -5.842549 -5.9354625
-6.141199 -5.8792386 -6.105893 -6.0407805 -5.9844093 -5.9948235 -5.975255 -6.0108247
-5.8836036 -5.912589 -6.07185 -5.993193 -6.014846 -5.9337244 -6.123543 -6.1883063
-6.1758237 -6.022187 -6.1124663 -5.8950353 -6.063271 -6.0098805 -6.1052394 -6.0937185
-6.005103 -5.9535575 -5.916906 -6.146476 -5.9335093 -5.9285436 -6.1282673 -5.762874
-6.066167 -6.0431104 -6.1200624 -5.89235 -5.953329 -6.040772 -6.1546926 -5.937406
-6.0295887 -5.956837 -5.962602 -5.9735394 -6.2386427 -6.040423 -6.024622 -6.1150064
-6.002711 -5.9511886 -5.987374 -5.918982 -5.8745165 -5.9955587 -6.0758166 -6.126344
-5.946358 -5.9561806 -6.3179917 -6.05897 -5.9500036 -5.9241233 -5.871775 -5.9480205
-6.0043106 -6.062464 -5.965877 -6.1030817 -6.07154 -6.036507 -6.0444813 -6.0532084
-6.073635 -5.980462 -6.020593 -6.0372105 -6.2771597 -6.027311 -5.8798723 -6.0064597
-5.998293 -6.275733 -6.0960164 -6.1342382 -6.0669594 -6.085079 -5.9227796 -6.06187
-6.1186094 -6.155787 -6.093214 -6.137913 -5.9973397 -5.9244027 -6.149167 -5.9084373
-6.0660534 -5.9419956 -6.1867547 -5.9894576 -6.1814504 -5.932411 -6.0725093 -5.9336615
-6.0706825 -5.9701247 -6.1022243 -6.29049 -6.0705557 -5.9813643 -5.853021 -6.2179875
-6.0254087 -6.2802634 -6.090794 -6.081919 -6.065748 -5.9180117 -6.168717 -5.9772587
-6.2650595 -5.8665223 -6.0919795 -6.1811957 -5.91735 -5.9162216 -6.0556545 -6.24902
-5.916668 -5.934404 -5.986857 -5.962138 -5.967457 -6.288919
00000000: 2be4 c8c0 1f06 c3c0 aed3 bbc0 0900 c1c0
00000010: 3fad bdc0 a2c3 c0c0 3267 bfc0 ab65 bcc0
00000020: 32da c6c0 d53c c0c0 abe6 bbc0 897b bec0
00000030: 9535 bbc0 eaf6 c1c0 29f6 bac0 4fef bdc0
00000040: b484 c4c0 b922 bcc0 7a63 c3c0 134e c1c0
00000050: 4880 bfc0 98d5 bfc0 4a35 bfc0 ad58 c0c0
00000060: 7b46 bcc0 ee33 bdc0 984c c2c0 3dc8 bfc0
00000070: 9e79 c0c0 12e1 bdc0 10f4 c3c0 9b06 c6c0
00000080: 59a0 c5c0 c2b5 c0c0 5399 c3c0 21a4 bcc0
00000090: 5106 c2c0 f150 c0c0 1f5e c3c0 beff c2c0
000000a0: ce29 c0c0 8b83 bec0 4b57 bdc0 eeaf c4c0
000000b0: 4fdf bdc0 a1b6 bdc0 c41a c4c0 7769 b8c0
000000c0: 0a1e c2c0 2961 c1c0 8dd7 c3c0 228e bcc0
000000d0: ac81 bec0 014e c1c0 3ef3 c4c0 3bff bdc0
000000e0: 64f2 c0c0 699e bec0 a3cd bec0 3c27 bfc0
000000f0: f6a2 c7c0 254b c1c0 b4c9 c0c0 22ae c3c0
00000100: 3516 c0c0 2370 bec0 9198 bfc0 4d68 bdc0
00000110: 0afc bbc0 9edb bfc0 176d c2c0 030b c4c0
00000120: 9148 bec0 0899 bec0 fd2c cac0 15e3 c1c0
00000130: 6e66 bec0 6b92 bdc0 95e5 bbc0 2f56 bec0
00000140: 5023 c0c0 b5ff c1c0 77e8 bec0 724c c3c0
00000150: 0e4a c2c0 112b c1c0 646c c1c0 e2b3 c1c0
00000160: 385b c2c0 f25f bfc0 b3a8 c0c0 d430 c1c0
00000170: 7ede c8c0 bbdf c0c0 ea27 bcc0 eb34 c0c0
00000180: 04f2 bfc0 ced2 c8c0 9112 c3c0 ae4b c4c0
00000190: 8824 c2c0 f8b8 c2c0 6987 bdc0 d7fa c1c0
000001a0: a6cb c3c0 35fc c4c0 9cfb c2c0 c969 c4c0
000001b0: 35ea bfc0 b594 bdc0 fac5 c4c0 eb11 bdc0
000001c0: 1c1d c2c0 d424 bec0 e5f9 c5c0 a3a9 bfc0
000001d0: 71ce c5c0 50d6 bdc0 ff51 c2c0 8ee0 bdc0
000001e0: 0843 c2c0 430b bfc0 6c45 c3c0 b24b c9c0
000001f0: fe41 c2c0 5667 bfc0 f34b bbc0 c1f9 c6c0
00000200: 26d0 c0c0 ebf7 c8c0 c9e7 c2c0 159f c2c0
00000210: 9c1a c2c0 5a60 bdc0 2166 c5c0 b445 bfc0
00000220: 5e7b c8c0 8dba bbc0 7ff1 c2c0 5bcc c5c0
00000230: ee5a bdc0 b051 bdc0 ecc7 c1c0 f9f7 c7c0
00000240: 5855 bdc0 a3e6 bdc0 5594 bfc0 d6c9 bec0
00000250: 68f5 bec0 d33e c9c0

eps_w f4 [6, 1, 5, 5]
0.25499114 -0.0888521 0.13257095 -0.6981085 -0.61596996 -0.37472647 -0.29501906 0.8467584
-0.08464105 2.4378915 1.5501505 -1.3615247 -2.6419334 0.5617736 1.03017 0.6745803
0.08125105 1.9962094 -1.5816095 0.2207981 0.38210377 -1.1672626 -0.09719983 -0.72355914
0.8816968 0.71056277 -0.44370955 -1.0603027 1.6429416 -0.38042745 -1.544782 -0.3982798
0.1603876 2.2837427 0.18050565 -0.5075023 -1.8191152 1.1598425 1.049101 -0.281259
-1.3327681 0.24971658 0.2335422 -0.35150743 -1.7893673 -0.25951847 -0.17580083 -1.0899639
2.1881497 1.163067 0.37136558 -0.24491605 1.0012357 0.48590937 -0.82884276 -0.10381282
1.04901 0.4460424 -0.25693172 -1.0759839 0.08503602 -0.043638676 0.6773546 0.6146411
-0.63730097 1.0939822 -1.265269 -1.4683841 1.7393361 0.0960588 -0.39275628 0.97262824
1.187582 -1.3117567 2.8988461 0.11832883 -0.442756 1.0531124 2.5401886 1.6639751
0.29645833 1.8002138 -0.9247597 -1.6426804 0.8502421 -1.4562169 0.7451158 -0.8204077
-1.8079927 2.1433926 -0.17436118 0.536156 -1.0201558 -0.5002375 -1.10913 -0.6731719
0.18502639 -1.9227395 -0.20646968 -0.07064494 -0.12543619 -0.3164345 0.21843272 0.31213227
0.15655318 -0.7960059 -1.0198742 0.62587273 -0.22098532 0.453652 1.8721814 0.030025829
-0.016932713 0.9599329 0.30886224 -0.33305046 -1.1111317 -0.08335337 -0.45608652 -1.0167575
0.4284166 -0.87827414 0.88372266 1.8934077 -1.6799912 -0.42725194 0.27297255 0.74712324
1.7343127 0.03943493 0.61667866 -0.65544516 0.9079315 -0.6735863 -1.3950412 -0.40960488
-0.07709123 -0.7184056 0.96977335 -1.8688885 0.74362993 0.09734987 -0.20535992 -0.31122544
-0.48911032 -1.0159291 0.6046633 -0.28715536 2.4344962 0.36484107
00000000: 338e 823e 17f8 b5bd aec0 073e 3db7 32bf
00000010: 35b0 1dbf 26dc bfbe bd0c 97be 29c5 583f
00000020: 4958 adbd 6a06 1c40 556b c63f 7146 aebf
00000030: 7015 29c0 65d0 0f3f 9cdc 833f 4bb1 2c3f
00000040: f366 a63d ca83 ff3f 2e72 cabf e618 623e
00000050: 1ba3 c33e dc68 95bf b410 c7bd 2c3b 39bf
00000060: e2b6 613f 71e7 353f e62d e3be 00b8 87bf
00000070: e94b d23f 63c7 c2be 6bbb c5bf 54eb cbbe
00000080: a63c 243e d728 1240 79d6 383e aceb 01bf
00000090: c4d8 e8bf b875 943f f148 863f 2e01 90be
000000a0: 2598 aabf b4b5 7f3e b025 6f3e c8f8 b3be
000000b0: fd09 e5bf 9bdf 84be 2205 34be f083 8bbf
000000c0: a50a 0c40 61df 943f a123 be3e 46cb 7abe
000000d0: 7e28 803f 1dc9 f83e 0a2f 54bf d19b d4bd
000000e0: f645 863f ab5f e43e 8e8c 83be d7b9 89bf
000000f0: 5d27 ae3d 78be 32bd 1c67 2d3f 1e59 1d3f
00000100: 2826 23bf 9c07 8c3f 56f4 a1bf 03f4 bbbf
00000110: 91a2 de3f 7aba c43d 5a17 c9be 2afe 783f
00000120: b002 983f a5e7 a7bf b286 3940 6356 f23d
00000130: eab0 e2be 63cc 863f 7392 2240 23fd d43f
00000140: 63c9 973e 686d e63f 0dbd 6cbf 5a43 d2bf
00000150: 77a9 593f 5165 babf e9bf 3e3f 3d06 52bf
00000160: 4e6c e7bf 582d 0940 bd8b 32be 8541 093f
00000170: 7794 82bf 910f 00bf f9f7 8dbf fe54 2cbf
00000180: 8f77 3d3e 541c f6bf ca6c 53be 4bae 90bd
00000190: 5872 00be b403 a2be d4ac 5f3e cdcf 9f3e
000001a0: 7a4f 203e 0bc7 4bbf 3d8b 82bf 3239 203f
000001b0: fa49 62be 1345 e83e a4a3 ef3f baf8 f53c
000001c0: 79b6 8abc 2abe 753f 3123 9e3e 9785 aabe
000001d0: 9039 8ebf 2cb5 aabd 2c84 e9be 1c25 82bf
000001e0: 6c59 db3e 93d6 60bf a63b 623f 2f5b f23f
000001f0: f409 d7bf c4c0 dabe 0fc3 8b3e 7843 3f3f
00000200: f5fd dd3f 8586 213d a7de 1d3f 41cb 27bf
00000210: 336e 683f 2770 2cbf b690 b2bf bbb7 d1be
00000220: 02e2 9dbd 6ee9 37bf 1143 783f bd37 efbf
00000230: 885e 3e3f 5e5f c73d df49 52be f158 9fbe
00000240: ab6c fabe f709 82bf 37cb 1a3f 0706 93be
00000250: c9ce 1b40 73cc ba3e

sigma f4 [6, 1, 5, 5]
0.0018756678 0.0022527045 0.0028200515 0.0023995973 0.0026618617 0.0024173344 0.0025222385 0.0027703098
0.0019989468 0.0024573917 0.0028135316 0.0025957543 0.0028749255 0.0023284433 0.002897237 0.0026405104
0.0021500282 0.0027930099 0.0022272072 0.0023768737 0.0025145363 0.002488518 0.0025376314 0.0024490638
0.0027808622 0.0027015216 0.002304245 0.0024925733 0.0024392474 0.002645098 0.002188285 0.002051196
0.0020769343 0.002421427 0.0022126313 0.0027492964 0.0023240747 0.0024513744 0.002228662 0.0022544574
0.002463099 0.0025932214 0.0026899003 0.0021387252 0.0026456658 0.0026588188 0.0021779821 0.003137142
0.0023173622 0.0023713491 0.0021959061 0.0027566783 0.0025938132 0.0023768942 0.002121242 0.00263539
0.0024035925 0.0025847415 0.0025699025 0.0025419835 0.0019506003 0.0023777229 0.002415546 0.0022070243
0.0024689913 0.002599364 0.0025071024 0.002684329 0.0028062116 0.002486691 0.0022951332 0.00218217
0.0026119337 0.002586437 0.0018019375 0.0023340806 0.0026024417 0.002670582 0.002813904 0.0026076012
0.0024650495 0.0023259483 0.0025615108 0.0022334706 0.0023049586 0.0023870408 0.0023681042 0.0023475515
0.0023001397 0.002524469 0.0024252853 0.0023853644 0.0018769666 0.0024090672 0.002791243 0.002459764
0.0024799097 0.0018796439 0.0022492886 0.0021650302 0.0023155285 0.0022739966 0.002674168 0.002327329
0.0021990954 0.0021189244 0.0022555937 0.0021570968 0.0024822718 0.0026698369 0.0021329832 0.0027127457
0.0023176246 0.0026233383 0.0020543782 0.00250189 0.002065293 0.002648569 0.0023027277 0.0026452641
0.0023069333 0.0025506672 0.002235384 0.0018521347 0.0023072257 0.0025221952 0.0028670975 0.0019912685
0.0024136484 0.0018711555 0.0022610526 0.0022811855 0.0023183313 0.0026869315 0.0020917316 0.0025325585
0.0018997946 0.002828703 0.002258377 0.0020658183 0.0026887082 0.0026917392 0.002341823 0.0019304821
0.0026905395 0.0026433035 0.002508397 0.0025710936 0.0025574726 0.0018550444
00000000: f8d8 f53a 1ca2 133b 9dd0 383b 9042 1d3b
00000010: a172 2e3b 246c 1e3b 244c 253b 168e 353b
00000020: c300 033b 310c 213b 3a63 383b 881d 2a3b
00000030: 3f69 3c3b cc98 183b 92df 3d3b 6a0c 2d3b
00000040: 7de7 0c3b ee0a 373b 56f6 113b 53c5 1b3b
00000050: ebca 243b 6716 233b 644e 263b 7980 203b
00000060: 203f 363b 030c 313b d102 173b 715a 233b
00000070: c8db 1f3b 6159 2d3b 5569 0f3b 5c6d 063b
00000080: 2d1d 083b ceb0 1e3b cb01 113b 8a2d 343b
00000090: 814f 183b 3da7 203b be0e 123b 85bf 133b
000000a0: f26b 213b 09f3 293b 0a49 303b db29 0c3b
000000b0: e862 2d3b 943f 2e3b 7abc 0e3b 8298 4d3b
000000c0: e3de 173b a368 1b3b 31e9 0f3b 63a9 343b
000000d0: f7fc 293b abc5 1b3b 8904 0b3b 82b6 2c3b
000000e0: 9785 1d3b c464 293b cf6b 283b 6897 263b
000000f0: 49ab ff3a 92d3 1b3b 234e 1e3b b9a3 103b
00000100: cdce 213b 175a 2a3b 334e 243b 91eb 2f3b
00000110: 6be8 373b c1f7 223b f269 163b bd02 0f3b
00000120: fa2c 2b3b 3681 293b fd2e ec3a 60f7 183b
00000130: ba8d 2a3b ee04 2f3b 7a69 383b 4ae4 2a3b
00000140: ab8c 213b f06e 183b 05df 273b 6b5f 123b
00000150: ca0e 173b e66f 1c3b 3232 1b3b 61d9 193b
00000160: f1bd 163b 9071 253b 89f1 1e3b c653 1c3b
00000170: 8c04 f63a 71e1 1d3b 49ed 363b fe33 213b
00000180: fb85 223b 625e f63a cd68 133b 2ee3 0d3b
00000190: 1fc0 173b 5507 153b 1841 2f3b 1a86 183b
000001a0: b31e 103b a7dd 0a3b 95d2 133b 145e 0d3b
000001b0: 9cad 223b 6ef8 2e3b 85c9 0b3b 52c8 313b
000001c0: 4ae3 173b 50ec 2b3b bfa2 063b c0f6 233b
000001d0: de59 073b 9d93 2d3b 5ce9 163b 2b5c 2d3b
000001e0: eb2f 173b 1829 273b 857f 123b 54c3 f23a
000001f0: d334 173b 6a4b 253b eae5 3b3b f17f 023b
00000200: 4d2e 1e3b 8f41 f53a 2b2e 143b f17f 153b
00000210: 25ef 173b 3b17 303b 6f15 093b 48f9 253b
00000220: 8702 f93a c361 393b 4701 143b ae62 073b
00000230: 0a35 303b e467 303b 4579 193b 3b08 fd3a
00000240: c353 303b 463b 2d3b eb63 243b cb7f 283b
00000250: 459b 273b f624 f33a

w f4 [6, 1, 5, 5]
-0.004309856 -0.1314739 -0.007359913 0.0012490908 0.11541099 0.07058164 -0.03495504 0.12287054
0.23650293 0.27261838 0.09291384 0.07763661 0.01366489 0.08452573 0.03785962 0.079806656
0.32364747 -0.03148875 0.042273305 -0.017766202 0.13251653 -0.055338368 -0.1966475 -0.17213471
0.017556414 -0.116188765 -0.258018 -0.30936038 -0.10752412 0.118985154 -0.0075429054 0.1805521
0.16649134 0.24482308 0.1562775 0.045091636 0.034116954 0.17101823 0.16218005 -0.02122999
0.099510364 0.08210936 0.11086466 0.04485529 0.042486552 0.19239181 0.15271938 0.14843626
0.014431449 -0.035538927 -0.073225014 -0.24149056 -0.012973022 0.18788162 0.15443087 -0.3020608
0.06471949 0.20362036 0.0390035 0.06091969 0.03984605 0.020700842 0.055227436 0.098242864
0.25970215 -0.050391305 0.017445927 0.018880244 0.19820556 0.08061359 -0.04263745 -0.02452139
0.10408496 0.19247021 0.055813085 -0.003553762 0.23437372 0.12348559 -0.12627465 0.008444618
0.057423197 0.2233637 0.23065071 0.24246745 0.06140046 0.0367708 -0.053323068 0.016235234
0.15747356 -0.0652685 -0.09447655 -0.2298944 -0.051798966 -0.2701192 0.2915613 -0.04747421
-0.07685255 -0.06907316 0.2702054 0.0116537595 0.21962038 -0.16829695 -0.14197335 5.285279e-05
0.19899166 0.18688832 -0.22270682 -0.16958 -0.020518843 0.20974696 0.030333456 -0.39112797
-0.23634921 0.12525044 0.23207246 -0.12863852 -0.20812531 -0.11320595 0.1768359 0.18986586
-0.07231535 -0.15194035 -0.07989397 0.21063997 0.06838831 0.16812041 0.15284099 0.32859156
0.2742348 0.20773815 0.26752037 0.062332865 0.10751537 -0.011289704 0.24149661 -0.10236302
0.020946579 0.006560874 -0.14272505 -0.09982301 -0.3553657 -0.2871086 -0.35779956 -0.044698335
-0.052717187 -0.08646041 -0.17578174 -0.11057568 -0.08953159 -0.15173265
00000000: b139 8dbb 18a1 06be 6d2b f1bb 88b8 a33a
00000010: 995c ec3d 1b8d 903d 042d 0fbd 8da3 fb3d
00000020: d32d 723e a394 8b3e 9d49 be3d f1ff 9e3d
00000030: b4e2 5f3c d31b ad3d b012 1b3d ac71 a33d
00000040: 1fb5 a53e 59fa 00bd c626 2d3d 6d8a 91bc
00000050: 6ab2 073e 7caa 62bd f65d 49be 1544 30be
00000060: 78d2 8f3c 60f4 edbd ef1a 84be 7c64 9ebe
00000070: 9b35 dcbd 7dae f33d 7a2a f7bb a6e2 383e
00000080: b57c 2a3e e7b2 7a3e 3507 203e 02b2 383d
00000090: 38be 0b3d 671f 2f3e 8712 263e 84ea adbc
000000a0: 17cc cb3d f428 a83d 030d e33d 2eba 373d
000000b0: 6106 2e3d 5c02 453e 7862 1c3e adff 173e
000000c0: e271 6c3c 4491 11bd fff6 95bd 4d49 77be
000000d0: cc8c 54bc 0a64 403e 2023 1e3e b7a7 9abe
000000e0: a78b 843d db81 503e 22c2 1f3d ed86 793d
000000f0: 9d35 233d d094 a93c 2a36 623d 8e33 c93d
00000100: aef7 843e 1d67 4ebd c3ea 8e3c beaa 9a3c
00000110: 66f6 4a3e bd18 a53d 9ba4 2ebd 15e1 c8bc
00000120: 7f2a d53d e916 453e 439c 643d 3ce6 68bb
00000130: aaff 6f3e 03e6 fc3d 244e 01be 4c5b 0a3c
00000140: 9634 6b3d 74b9 643e b32f 6c3e 6349 783e
00000150: 0c7f 7b3d fa9c 163d 4a69 5abd c1ff 843c
00000160: c040 213e 7eab 85bd ec7c c1bd 7069 6bbe
00000170: 272b 54bd 104d 8abe 8647 953e 5174 42bd
00000180: df64 9dbd 3b76 8dbd 5d58 8a3e 69ef 3e3c
00000190: 2ae4 603e 0956 2cbe 7661 11be 40ae 5d38
000001a0: 78c4 4b3e a75f 3f3e 420d 64be 61a6 2dbe
000001b0: 2217 a8bc e8c7 563e de7d f83c ed41 c8be
000001c0: 8705 72be a741 003e 67a4 6d3e d1b9 03be
000001d0: cd1e 55be 85d8 e7bd 7814 353e 326c 423e
000001e0: 121a 94bd 4096 1bbe 739f a3bd 01b2 573e
000001f0: 2c0f 8c3d c227 2c3e 5982 1c3e 273d a83e
00000200: 8168 8c3e 4fb9 543e 6ef8 883e bf50 7f3d
00000210: 0531 dc3d 73f8 38bc e34a 773e b4a3 d1bd
00000220: 2998 ab3c 9afc d63b 8426 12be 0270 ccbd
00000230: 7ef2 b5be e6ff 92be 8131 b7be 9a15 37bd
00000240: faed 57bd 2812 b1bd 2100 34be 8175 e2bd
00000250: 575c b7bd ce5f 1bbe

mu f4 [6]
-0.009118152 0.0070323073 -0.13033085 -0.0011032979 -0.0028638656 0.067208044
00000000: 4d64 15bc 456f e63b 7375 05be 899c 90ba
00000010: b1af 3bbb 5fa4 893d

rho f4 [6]
-6.1687512 -6.0752373 -6.172675 -5.9633946 -6.1024156 -6.0735745
00000000: 6966 c5c0 5868 c2c0 8e86 c5c0 21d4 bec0
00000010: fd46 c3c0 b95a c2c0

eps_w f4 [6]
-1.2169851 0.36704096 -0.15140724 0.35601434 0.4615373 -0.68477845
00000000: 2bc6 9bbf cbec bb3e 800a 1bbe 8347 b63e
00000010: 9e4e ec3e a44d 2fbf

sigma f4 [6]
0.00209166 0.0022964617 0.0020834773 0.0025678691 0.002234957 0.0023002787
00000000: 3b14 093b 3c80 163b f38a 083b b249 283b
00000010: 5b78 123b 46c0 163b

w f4 [6]
-0.011663671 0.007875203 -0.1306463 -0.0001890997 -0.0018323496 0.065632865
00000000: fb18 3fbc ff06 013c 25c8 05be 1049 46b9
00000010: 732b f0ba 866a 863d

weight_mu f4 [16, 6, 5, 5]
0.05937948 0.012036109 0.055962536 0.10081383 0.19814855 -0.007866731 0.21033983 0.11165826
0.06848776 0.030058445 0.0386153 0.07712625 -0.07854945 -0.09545892 -0.04216043 -0.2583108
-0.14219432 -0.09433793 -0.06072404 -0.11616794 -0.03018458 -0.13997841 -0.060730584 0.0045807813
-0.04716263 0.1110752 0.11719606 0.06678919 0.17149462 0.16189869 -0.013038014 0.033698738
0.032284636 0.14833058 -0.012029361 -0.06507552 0.071336925 0.05581656 0.049637128 -0.03714543
-0.19955476 -0.08247247 -0.11382349 0.0048201443 0.029345186 -0.21820675 -0.045307193 0.016955275
0.17958722 0.0773452 0.21994102 -0.19519578 0.04060805 0.048331715 0.19428824 0.019883301
0.12967572 0.07839182 -0.056185294 0.0658381 -0.026946098 0.009646437 -0.14428644 -0.035649918
-0.1348759 0.14239165 -0.018319504 -0.27244943 -0.14006639 -0.07010577 -0.026404517 -0.1798026
-0.059935804 -0.105432644 -0.058373243 -0.11727469 0.09375523 0.13531923 0.2443387 0.030406643
0.10276615 0.020959346 0.12899426 0.04810309 0.09351311 0.0015153582 -0.05316968 0.060133755
0.11925939 0.16677207 -0.12545566 0.027378265 -0.07487264 0.043213617 0.056093883 -0.13935155
-0.078304864 -0.13213043 -0.04929532 -0.022820877 -0.178223 -0.032019317 0.051497508 -0.05880906
-0.24012233 0.066643074 -0.05794545 0.09742906 0.07762458 0.054959636 0.20295498 0.04036664
0.062483262 -0.022557454 -0.2658608 0.15136522 0.108207315 0.024103941 0.02725742 0.0036487132
0.09270492 0.0017754801 0.097260475 -0.06674926 -0.16949178 -0.07457236 -0.27756387 -0.11274177
0.21978042 0.2804746 -0.016697789 -0.06449235 0.082448386 0.16673043 0.057362255 -0.044165544
-0.08044016 -0.026552165 0.10425187 0.10461476 -0.0336828 0.13336375 -0.019303849 0.08604171
-0.06142851 0.012340918 -0.005292399 0.1170353 0.15087147 0.17020227 -0.12544084 -0.092955336
0.017207239 0.17394288 0.11785404 -0.08103649 0.04706262 -0.22094007 0.18155976 0.08670997
-0.06168215 0.0121407695 -0.20705913 0.13268675 -0.08014876 -0.03659694 -0.16217205 0.0035002204
-0.061033044 -0.23438445 -0.16374326 -0.020099241 0.101324685 0.007369192 -0.08793981 0.04869315
-0.06004495 0.060363695 0.05104822 0.22027795 -0.19229378 0.2572881 0.05042058 0.1572484
0.0036572115 -0.15777935 0.1500314 0.11164337 0.0011136204 -0.15412919 0.07782558 -0.052569177
-0.1252801 -0.119850576 -0.02613173 0.10543035 -0.07961141 -0.08517024 -0.01877519 -0.117371604
-0.22822757 -0.040095624 0.2333158 0.07348993 0.069683835 -0.23901053 -0.008320832 0.097827025
0.07494049 0.16465287 -0.10399368 0.2984225 0.04787699 -0.09442265 -0.18251662 -0.20318972
-0.031235632 0.19461614 -0.12119823 -0.20738542 0.0026191468 0.035239432 0.0619835 -0.09265016
-0.31475243 -0.11619062 0.09137742 0.15685718 -0.083137654 0.1835545 0.11577453 -0.08299304
0.0374179 -0.07325868 -0.053774703 -0.14225966 0.03680098 0.16451137 -0.16337487 0.119228095
-0.013444523 0.11198346 -0.0071104546 -0.0072315624 -0.03708718 -0.1657979 0.018960714 0.10000413
0.036854357 0.069420114 0.07442022 0.21413971 0.15577404 0.025849639 0.034822885 0.05530804
00000000: e637 733d 1a33 453c f938 653d 7b77 ce3d
00000010: 74e7 4a3e 76e3 00bc 5363 573e 16ad e43d
00000020: 5043 8c3d 213d f63c 142b 1e3d 5ef4 9d3d
00000030: 89de a0bd f77f c3bd 6ab0 2cbd 5041 84be
00000040: 639b 11be 3f34 c1bd c5b9 78bd 75e9 edbd
00000050: a745 f7bc 8056 0fbe a2c0 78bd 611a 963b
00000060: 9a2d 41bd 657b e33d 7d04 f03d c5c8 883d
00000070: 499c 2f3e c5c8 253e 659d 55bc b007 0a3d
00000080: e53c 043d f9e3 173e cc16 45bc 5046 85bd
00000090: 1819 923d e89f 643d 4d50 4b3d ce25 18bd
000000a0: 1558 4cbe 54e7 a8bd 4a1c e9bd 4df2 9d3b
000000b0: 5165 f03c 9771 5fbe 0994 39bd cae5 8a3c
000000c0: b6e5 373e 2967 9e3d 3838 613e 67e1 47be
000000d0: a054 263d 7af7 453d 7ff3 463e 4ee2 a23c
000000e0: b6c9 043e e48b a03d 8d22 66bd 20d6 863d
000000f0: 10be dcbc 170c 1e3c d3bf 13be a605 12bd
00000100: e81c 0abe 1ecf 113e c912 96bc 7e7e 8bbe
00000110: 906d 0fbe 9d93 8fbd 494e d8bc 2c1e 38be
00000120: 3f7f 75bd 12ed d7bd c818 6fbd b62d f0bd
00000130: be02 c03d 2091 0a3e ed33 7a3e 5a17 f93c
00000140: 0f77 d23d efb2 ab3c 1217 043e bf07 453d
00000150: cd83 bf3d fc9e c63a 73c8 59bd d04e 763d
00000160: 443e f43d 4cc6 2a3e 7377 00be 6248 e03c
00000170: d456 99bd c300 313d b3c2 653d 2cb2 0ebe
00000180: 4d5e a0bd 334d 07be e4e9 49bd d9f2 babc
00000190: 1780 36be b026 03bd 0def 523d c5e1 70bd
000001a0: a1e2 75be 2a7c 883d 3558 6dbd e388 c73d
000001b0: a3f9 9e3d 5b1d 613d 6ed3 4f3e 7d57 253d
000001c0: 73ee 7f3d 69ca b8bc e81e 88be 7cff 1a3e
000001d0: cc9b dd3d a175 c53c f44a df3c 401f 6f3b
000001e0: 14dc bd3d 3ab7 e83a 8030 c73d d6b3 88bd
000001f0: 418f 2dbe 65b9 98bd da1c 8ebe 28e5 e6bd
00000200: 1e0e 613e 5e9a 8f3e cdc9 88bc 9114 84bd
00000210: b3da a83d 62bb 2a3e aff4 6a3d eee6 34bd
00000220: d0bd a4bd ed83 d9bc 0182 d53d 4340 d63d
00000230: faf6 09bd 8290 083e 1b23 9ebc a336 b03d
00000240: 769c 7bbd 9031 4a3c dc6b adbb 34b0 ef3d
00000250: 0d7e 1a3e 8149 2e3e 9073 00be 5e5f bebd
00000260: 32f6 8c3c 151e 323e 755d f13d 76f6 a5bd
00000270: bcc4 403d 1d3e 62be cdea 393e ff94 b13d
00000280: 6ca6 7cbd 14ea 463c 4f07 54be 09df 073e
00000290: 0825 a4bd ace6 15bd 6e10 26be f463 653b
000002a0: c9fd 79bd 7a02 70be 50ac 27be 2aa7 a4bc
000002b0: 5183 cf3d 4379 f13b c919 b4bd 7872 473d
000002c0: b2f1 75bd ec3f 773d f017 513d 8b90 613e
000002d0: a9e8 44be 44bb 833e cf85 4e3d b905 213e
000002e0: d4ad 6f3b e990 21be d5a1 193e 47a5 e43d
000002f0: e6f6 913a 0bd4 1dbe 0563 9f3d c752 57bd
00000300: 6d49 00be 3874 f5bd 3612 d6bc deeb d73d
00000310: 4f0b a3bd bc6d aebd 6dce 99bc 8660 f0bd
00000320: 7db4 69be 4f3b 24bd 56ea 6e3e e381 963d
00000330: 66b6 8e3d 2dbf 74be 1954 08bc 8959 c83d
00000340: 667a 993d c39a 283e a3fa d4bd d5ca 983e
00000350: aa1a 443d aa60 c1bd a3e5 3abe f710 50be
00000360: dee1 ffbc 7449 473e c736 f8bd d85c 54be
00000370: fea5 2b3b 3957 103d 69e2 7d3d 5ebf bdbd
00000380: 3b27 a1be 59f5 edbd 1624 bb3d 2b9f 203e
00000390: 1344 aabd b6f5 3b3e 321b ed3d 41f8 a9bd
000003a0: 8343 193d a608 96bd dd42 5cbd 84ac 11be
000003b0: a0bc 163d ab75 283e be4b 27be dc2d f43d
000003c0: 6b46 5cbc 9657 e53d d1fe e8bb bef6 ecbb
000003d0: bae8 17bd edc6 29be 8053 9b3c f7ce cc3d
000003e0: 98f4 163d 222c 8e3d a169 983d 7147 5b3e
000003f0: 3b83 1f3e 9fc2 d33c 71a2 0e3d af8a 623d

weight_rho f4 [16, 6, 5, 5]
-6.0544477 -6.000795 -6.1150312 -5.861028 -5.769488 -6.1663632 -5.874578 -6.0079365
-6.0070457 -5.9668365 -6.1306787 -5.9610844 -5.96835 -5.989753 -5.886482 -6.0646696
-6.0861297 -5.857786 -6.0006046 -5.8986 -6.0702715 -6.0766 -5.9985633 -5.8678083
-5.972219 -5.8525486 -6.026805 -5.965925 -5.947455 -6.0331006 -6.1961765 -6.0025883
-5.86956 -6.210496 -6.1229544 -5.9795494 -5.9525805 -5.986491 -6.1454496 -6.1317744
-6.052567 -6.2190585 -5.8777146 -5.9527497 -5.9145064 -6.056595 -5.994262 -6.104516
-6.0759974 -6.0784106 -6.060706 -5.9103436 -6.075193 -6.105705 -5.9315457 -5.993804
-6.1551423 -5.900334 -5.846294 -6.041672 -6.10433 -5.871376 -6.21563 -6.003515
-6.020561 -6.1497464 -5.9048924 -5.8770857 -5.8905745 -5.983155 -5.8360257 -5.9227333
-6.009144 -6.087235 -5.947832 -5.97567 -6.139846 -6.0982113 -5.8632355 -6.0594697
-5.943313 -5.9532814 -5.85484 -5.8948464 -6.0097427 -6.0078797 -5.978184 -5.900764
-5.9356174 -5.8755956 -6.1208525 -6.197359 -5.87901 -5.9132957 -6.050648 -6.0390735
-5.996074 -5.992401 -6.103764 -6.036343 -5.9603405 -6.271818 -5.9808025 -6.1172743
-6.045105 -6.0277014 -5.995316 -5.959089 -5.9945188 -6.082116 -5.9932384 -6.0649714
-5.9066377 -5.9229617 -6.0880914 -6.0715895 -5.968708 -5.888526 -5.8868113 -6.026957
-6.064368 -5.852592 -5.9573674 -6.0769706 -5.954334 -5.8591537 -6.0212793 -6.199841
-6.047969 -6.0042005 -5.9893985 -5.950453 -5.8899403 -6.0836325 -6.2046294 -6.0584173
-6.0442486 -6.00964 -6.2018995 -6.149901 -6.104195 -5.902843 -6.1400695 -5.90866
-6.1858654 -6.231731 -5.8844137 -6.0480394 -6.095443 -5.9487476 -5.990401 -6.163781
-6.1246457 -6.261421 -6.098507 -6.105358 -6.05176 -6.113785 -6.1853137 -6.0179996
-5.7977057 -5.9646797 -5.934885 -5.987589 -5.9005456 -5.9910755 -6.1709647 -5.86222
-6.065697 -6.076938 -6.142279 -6.055566 -5.999388 -6.049613 -6.0884924 -5.919336
-6.0033593 -6.186269 -5.9690504 -6.077479 -6.0649033 -6.1685843 -6.0143967 -5.9201303
-5.875253 -6.078653 -5.9886518 -5.782658 -6.020111 -5.8290067 -5.8962636 -6.1395164
-5.974892 -6.1023717 -5.8299785 -5.965802 -6.1355767 -5.9495225 -6.0574956 -5.8663564
-5.9206724 -6.125664 -6.289814 -6.02881 -5.9065757 -5.9496765 -6.114643 -5.8585987
-5.9751954 -5.9170213 -5.87239 -5.979555 -6.2343593 -5.913985 -6.0877104 -5.9452524
-6.16327 -5.9670005 -6.073332 -6.084194 -6.1018023 -5.8970723 -6.021163 -5.9189625
-6.040606 -5.876244 -5.7984567 -5.8745914 -5.96352 -5.991852 -5.9838905 -5.934184
-5.883331 -5.99443 -5.9525714 -6.0394645 -5.9691343 -5.6639514 -6.2507033 -5.874584
-6.0569158 -6.0550585 -6.126377 -6.056839 -5.7735796 -5.9080153 -6.1459274 -6.110309
-6.0373693 -5.890939 -6.1740203 -6.1828613 -5.9777384 -6.0170183 -6.014672 -5.952363
00000000: 09be c1c0 8306 c0c0 56ae c3c0 8b8d bbc0
00000010: a59f b8c0 d952 c5c0 8bfc bbc0 0441 c0c0
00000020: b839 c0c0 53f0 bec0 852e c4c0 34c1 bec0
00000030: b9fc bec0 0eac bfc0 0f5e bcc0 c611 c2c0
00000040: 93c1 c2c0 fc72 bbc0 f404 c0c0 55c1 bcc0
00000050: aa3f c2c0 8273 c2c0 3bf4 bfc0 16c5 bbc0
00000060: 6b1c bfc0 1448 bbc0 96db c0c0 dce8 bec0
00000070: 8d51 bec0 290f c1c0 1447 c6c0 3415 c0c0
00000080: 6fd3 bbc0 62bc c6c0 3eef c3c0 7858 bfc0
00000090: 8a7b bec0 5691 bfc0 86a7 c4c0 7f37 c4c0
000000a0: a1ae c1c0 8702 c7c0 3d16 bcc0 ed7c bec0
000000b0: a343 bdc0 a0cf c1c0 ffd0 bfc0 3258 c3c0
000000c0: 926e c2c0 5782 c2c0 4ef1 c1c0 8921 bdc0
000000d0: fb67 c2c0 ef61 c3c0 39cf bdc0 3ecd bfc0
000000e0: edf6 c4c0 89cf bcc0 d714 bbc0 6155 c1c0
000000f0: ac56 c3c0 50e2 bbc0 71e6 c6c0 cb1c c0c0
00000100: 70a8 c0c0 b9ca c4c0 e1f4 bcc0 1611 bcc0
00000110: 967f bcc0 0176 bfc0 b9c0 bac0 0887 bdc0
00000120: e84a c0c0 a1ca c2c0 a454 bec0 b038 bfc0
00000130: 9e79 c4c0 8c24 c3c0 a09f bbc0 2de7 c1c0
00000140: 9f2f bec0 4881 bec0 d95a bbc0 95a2 bcc0
00000150: d04f c0c0 8d40 c0c0 494d bfc0 0fd3 bcc0
00000160: 94f0 bdc0 e104 bcc0 06de c3c0 c450 c6c0
00000170: da20 bcc0 b839 bdc0 e99e c1c0 1740 c1c0
00000180: d7df bfc0 c0c1 bfc0 0952 c3c0 b929 c1c0
00000190: 1cbb bec0 bcb2 c8c0 bc62 bfc0 b6c0 c3c0
000001a0: 8071 c1c0 eee2 c0c0 a1d9 bfc0 dbb0 bec0
000001b0: 19d3 bfc0 b2a0 c2c0 9cc8 bfc0 3f14 c2c0
000001c0: 2d03 bdc0 e788 bdc0 a5d1 c2c0 764a c2c0
000001d0: a8ff bec0 ce6e bcc0 c260 bcc0 d5dc c0c0
000001e0: 4d0f c2c0 6f48 bbc0 c1a2 bec0 8b76 c2c0
000001f0: e789 bec0 307e bbc0 52ae c0c0 1965 c6c0
00000200: f688 c1c0 6922 c0c0 27a9 bfc0 1c6a bec0
00000210: 647a bcc0 1ead c2c0 538c c6c0 8ede c1c0
00000220: 7c6a c1c0 f94e c0c0 f675 c6c0 fdcb c4c0
00000230: 9155 c3c0 17e4 bcc0 737b c4c0 be13 bdc0
00000240: 9cf2 c5c0 576a c7c0 1e4d bcc0 8a89 c1c0
00000250: de0d c3c0 245c bec0 5db1 bfc0 b23d c5c0
00000260: 19fd c3c0 905d c8c0 f826 c3c0 185f c3c0
00000270: 05a8 c1c0 20a4 c3c0 17ee c5c0 7493 c0c0
00000280: ce86 b9c0 a8de bec0 94ea bdc0 549a bfc0
00000290: 45d1 bcc0 e4b6 bfc0 8b78 c5c0 4e97 bbc0
000002a0: 311a c2c0 4776 c2c0 8d8d c4c0 32c7 c1c0
000002b0: fdfa bfc0 6e96 c1c0 eed4 c2c0 336b bdc0
000002c0: 851b c0c0 eaf5 c5c0 7602 bfc0 b57a c2c0
000002d0: b013 c2c0 0b65 c5c0 f075 c0c0 b571 bdc0
000002e0: 1302 bcc0 5384 c2c0 09a3 bfc0 890b b9c0
000002f0: c0a4 c0c0 3987 bac0 31ae bcc0 eb76 c4c0
00000300: 5132 bfc0 a146 c3c0 2f8f bac0 dae7 bec0
00000310: a556 c4c0 7d62 bec0 01d7 c1c0 31b9 bbc0
00000320: 2676 bdc0 7105 c4c0 2846 c9c0 03ec c0c0
00000330: ab02 bdc0 c063 bec0 28ab c3c0 a479 bbc0
00000340: cd34 bfc0 3d58 bdc0 9eea bbc0 8458 bfc0
00000350: df7f c7c0 5d3f bdc0 86ce c2c0 823f bec0
00000360: 8239 c5c0 abf1 bec0 bc58 c2c0 b8b1 c2c0
00000370: f741 c3c0 d1b4 bcc0 5ead c0c0 2468 bdc0
00000380: a54c c1c0 310a bcc0 f58c b9c0 a7fc bbc0
00000390: 28d5 bec0 40bd bfc0 087c bfc0 d6e4 bdc0
000003a0: 3f44 bcc0 5fd2 bfc0 777b bec0 4b43 c1c0
000003b0: 2603 bfc0 173f b5c0 c305 c8c0 98fc bbc0
000003c0: 41d2 c1c0 0ac3 c1c0 480b c4c0 a0d1 c1c0
000003d0: 2ac1 b8c0 760e bdc0 70ab c4c0 a787 c3c0
000003e0: 2132 c1c0 9382 bcc0 9391 c5c0 00da c5c0
000003f0: a249 bfc0 6a8b c0c0 3178 c0c0 c279 bec0

bias_mu f4 [16]
0.044416197 0.10660594 -0.21936487 0.12590258 -0.11724265 0.09165852 0.21946932 0.0839097
0.18581071 -0.021169757 0.094266675 0.0365514 -0.25496536 -0.15903467 0.15844388 -0.053039815
00000000: c2ed 353d 3754 da3d 2fa1 60be 9bec 003e
00000010: ea1c f0bd 76b7 bb3d 91bc 603e d9d8 ab3d
00000020: 2a45 3e3e 336c adbc e30e c13d ecb6 153d
00000030: d28a 82be fcd9 22be 1d3f 223e 4740 59bd

bias_rho f4 [16]
-6.1352487 -6.110607 -5.969 -5.931771 -5.890155 -5.9865828 -5.9605365 -5.8912
-5.9605956 -5.993403 -5.94592 -6.226291 -5.9925957 -6.0358953 -6.176656 -5.8849826
00000000: f553 c4c0 188a c3c0 0c02 bfc0 11d1 bdc0
00000010: 267c bcc0 1692 bfc0 b7bc bec0 b684 bcc0
00000020: 33bd bec0 f5c9 bfc0 fa44 bec0 c73d c7c0
00000030: 58c3 bfc0 0e26 c1c0 2aa7 c5c0 c751 bcc0

mu f4 [16, 6, 5, 5]
0.05937948 0.012036109 0.055962536 0.10081383 0.19814855 -0.007866731 0.21033983 0.11165826
0.06848776 0.030058445 0.0386153 0.07712625 -0.07854945 -0.09545892 -0.04216043 -0.2583108
-0.14219432 -0.09433793 -0.06072404 -0.11616794 -0.03018458 -0.13997841 -0.060730584 0.0045807813
-0.04716263 0.1110752 0.11719606 0.06678919 0.17149462 0.16189869 -0.013038014 0.033698738
0.032284636 0.14833058 -0.012029361 -0.06507552 0.071336925 0.05581656 0.049637128 -0.03714543
-0.19955476 -0.08247247 -0.11382349 0.0048201443 0.029345186 -0.21820675 -0.045307193 0.016955275
0.17958722 0.0773452 0.21994102 -0.19519578 0.04060805 0.048331715 0.19428824 0.019883301
0.12967572 0.07839182 -0.056185294 0.0658381 -0.026946098 0.009646437 -0.14428644 -0.035649918
-0.1348759 0.14239165 -0.018319504 -0.27244943 -0.14006639 -0.07010577 -0.026404517 -0.1798026
-0.059935804 -0.105432644 -0.058373243 -0.11727469 0.09375523 0.13531923 0.2443387 0.030406643
0.10276615 0.020959346 0.12899426 0.04810309 0.09351311 0.0015153582 -0.05316968 0.060133755
0.11925939 0.16677207 -0.12545566 0.027378265 -0.07487264 0.043213617 0.056093883 -0.13935155
-0.078304864 -0.13213043 -0.04929532 -0.022820877 -0.178223 -0.032019317 0.051497508 -0.05880906
-0.24012233 0.066643074 -0.05794545 0.09742906 0.07762458 0.054959636 0.20295498 0.04036664
0.062483262 -0.022557454 -0.2658608 0.15136522 0.108207315 0.024103941 0.02725742 0.0036487132
0.09270492 0.0017754801 0.097260475 -0.06674926 -0.16949178 -0.07457236 -0.27756387 -0.11274177
0.21978042 0.2804746 -0.016697789 -0.06449235 0.082448386 0.16673043 0.057362255 -0.044165544
-0.08044016 -0.026552165 0.10425187 0.10461476 -0.0336828 0.13336375 -0.019303849 0.08604171
-0.06142851 0.012340918 -0.005292399 0.1170353 0.15087147 0.17020227 -0.12544084 -0.092955336
0.017207239 0.17394288 0.11785404 -0.08103649 0.04706262 -0.22094007 0.18155976 0.08670997
-0.06168215 0.0121407695 -0.20705913 0.13268675 -0.08014876 -0.03659694 -0.16217205 0.0035002204
-0.061033044 -0.23438445 -0.16374326 -0.020099241 0.101324685 0.007369192 -0.08793981 0.04869315
-0.06004495 0.060363695 0.05104822 0.22027795 -0.19229378 0.2572881 0.05042058 0.1572484
0.0036572115 -0.15777935 0.1500314 0.11164337 0.0011136204 -0.15412919 0.07782558 -0.052569177
-0.1252801 -0.119850576 -0.02613173 0.10543035 -0.07961141 -0.08517024 -0.01877519 -0.117371604
-0.22822757 -0.040095624 0.2333158 0.07348993 0.069683835 -0.23901053 -0.008320832 0.097827025
0.07494049 0.16465287 -0.10399368 0.2984225 0.04787699 -0.09442265 -0.18251662 -0.20318972
-0.031235632 0.19461614 -0.12119823 -0.20738542 0.0026191468 0.035239432 0.0619835 -0.09265016
-0.31475243 -0.11619062 0.09137742 0.15685718 -0.083137654 0.1835545 0.11577453 -0.08299304
0.0374179 -0.07325868 -0.053774703 -0.14225966 0.03680098 0.16451137 -0.16337487 0.119228095
-0.013444523 0.11198346 -0.0071104546 -0.0072315624 -0.03708718 -0.1657979 0.018960714 0.10000413
0.036854357 0.069420114 0.07442022 0.21413971 0.15577404 0.025849639 0.034822885 0.05530804
00000000: e637 733d 1a33 453c f938 653d 7b77 ce3d
00000010: 74e7 4a3e 76e3 00bc 5363 573e 16ad e43d
00000020: 5043 8c3d 213d f63c 142b 1e3d 5ef4 9d3d
00000030: 89de a0bd f77f c3bd 6ab0 2cbd 5041 84be
00000040: 639b 11be 3f34 c1bd c5b9 78bd 75e9 edbd
00000050: a745 f7bc 8056 0fbe a2c0 78bd 611a 963b
00000060: 9a2d 41bd 657b e33d 7d04 f03d c5c8 883d
00000070: 499c 2f3e c5c8 253e 659d 55bc b007 0a3d
00000080: e53c 043d f9e3 173e cc16 45bc 5046 85bd
00000090: 1819 923d e89f 643d 4d50 4b3d ce25 18bd
000000a0: 1558 4cbe 54e7 a8bd 4a1c e9bd 4df2 9d3b
000000b0: 5165 f03c 9771 5fbe 0994 39bd cae5 8a3c
000000c0: b6e5 373e 2967 9e3d 3838 613e 67e1 47be
000000d0: a054 263d 7af7 453d 7ff3 463e 4ee2 a23c
000000e0: b6c9 043e e48b a03d 8d22 66bd 20d6 863d
000000f0: 10be dcbc 170c 1e3c d3bf 13be a605 12bd
00000100: e81c 0abe 1ecf 113e c912 96bc 7e7e 8bbe
00000110: 906d 0fbe 9d93 8fbd 494e d8bc 2c1e 38be
00000120: 3f7f 75bd 12ed d7bd c818 6fbd b62d f0bd
00000130: be02 c03d 2091 0a3e ed33 7a3e 5a17 f93c
00000140: 0f77 d23d efb2 ab3c 1217 043e bf07 453d
00000150: cd83 bf3d fc9e c63a 73c8 59bd d04e 763d
00000160: 443e f43d 4cc6 2a3e 7377 00be 6248 e03c
00000170: d456 99bd c300 313d b3c2 653d 2cb2 0ebe
00000180: 4d5e a0bd 334d 07be e4e9 49bd d9f2 babc
00000190: 1780 36be b026 03bd 0def 523d c5e1 70bd
000001a0: a1e2 75be 2a7c 883d 3558 6dbd e388 c73d
000001b0: a3f9 9e3d 5b1d 613d 6ed3 4f3e 7d57 253d
000001c0: 73ee 7f3d 69ca b8bc e81e 88be 7cff 1a3e
000001d0: cc9b dd3d a175 c53c f44a df3c 401f 6f3b
000001e0: 14dc bd3d 3ab7 e83a 8030 c73d d6b3 88bd
000001f0: 418f 2dbe 65b9 98bd da1c 8ebe 28e5 e6bd
00000200: 1e0e 613e 5e9a 8f3e cdc9 88bc 9114 84bd
00000210: b3da a83d 62bb 2a3e aff4 6a3d eee6 34bd
00000220: d0bd a4bd ed83 d9bc 0182 d53d 4340 d63d
00000230: faf6 09bd 8290 083e 1b23 9ebc a336 b03d
00000240: 769c 7bbd 9031 4a3c dc6b adbb 34b0 ef3d
00000250: 0d7e 1a3e 8149 2e3e 9073 00be 5e5f bebd
00000260: 32f6 8c3c 151e 323e 755d f13d 76f6 a5bd
00000270: bcc4 403d 1d3e 62be cdea 393e ff94 b13d
00000280: 6ca6 7cbd 14ea 463c 4f07 54be 09df 073e
00000290: 0825 a4bd ace6 15bd 6e10 26be f463 653b
000002a0: c9fd 79bd 7a02 70be 50ac 27be 2aa7 a4bc
000002b0: 5183 cf3d 4379 f13b c919 b4bd 7872 473d
000002c0: b2f1 75bd ec3f 773d f017 513d 8b90 613e
000002d0: a9e8 44be 44bb 833e cf85 4e3d b905 213e
000002e0: d4ad 6f3b e990 21be d5a1 193e 47a5 e43d
000002f0: e6f6 913a 0bd4 1dbe 0563 9f3d c752 57bd
00000300: 6d49 00be 3874 f5bd 3612 d6bc deeb d73d
00000310: 4f0b a3bd bc6d aebd 6dce 99bc 8660 f0bd
00000320: 7db4 69be 4f3b 24bd 56ea 6e3e e381 963d
00000330: 66b6 8e3d 2dbf 74be 1954 08bc 8959 c83d
00000340: 667a 993d c39a 283e a3fa d4bd d5ca 983e
00000350: aa1a 443d aa60 c1bd a3e5 3abe f710 50be
00000360: dee1 ffbc 7449 473e c736 f8bd d85c 54be
00000370: fea5 2b3b 3957 103d 69e2 7d3d 5ebf bdbd
00000380: 3b27 a1be 59f5 edbd 1624 bb3d 2b9f 203e
00000390: 1344 aabd b6f5 3b3e 321b ed3d 41f8 a9bd
000003a0: 8343 193d a608 96bd dd42 5cbd 84ac 11be
000003b0: a0bc 163d ab75 283e be4b 27be dc2d f43d
000003c0: 6b46 5cbc 9657 e53d d1fe e8bb bef6 ecbb
000003d0: bae8 17bd edc6 29be 8053 9b3c f7ce cc3d
000003e0: 98f4 163d 222c 8e3d a169 983d 7147 5b3e
000003f0: 3b83 1f3e 9fc2 d33c 71a2 0e3d af8a 623d
