Q3/model_pkl_5.pkl (torch, 124137 bytes, 42 tensors)

weight_mu f4 [6, 1, 5, 5]
0	0x3e1c2306	0.15247735
1	0x3eb50062	0.35351855
2	0x3e222cc3	0.15837388
3	0xbe0bd6e5	-0.13656195
4	0xbdc9e3ca	-0.098579004
5	0x3e191c67	0.14952241
6	0x3e8d4bbf	0.27596852
7	0x3e69422d	0.2277915
8	0xbd01bfd3	-0.03167708
9	0xbe00f82c	-0.1259467
10	0xbf06d805	-0.5267337
11	0xbe25035c	-0.16114563
12	0x3db28d95	0.08718411
13	0x3dfccb39	0.12343449
14	0xbd3a1eee	-0.045439653
15	0xbe8bb521	-0.27286628
16	0xbe2e2b3b	-0.17008679
17	0x3e5e8fa7	0.21734487
18	0x3e41efb7	0.189391
19	0x3e858b71	0.26082948
20	0x3db0edf1	0.08639134
21	0x3e048953	0.1294301
22	0x3d9c1406	0.07621007
23	0x3dcb3fea	0.099243
24	0x3e491f86	0.19640931
25	0x3ec3504f	0.38147208
26	0x3eeb9935	0.46015325
27	0x3e638666	0.22219238
28	0xbd676899	-0.056496236
29	0x3d2322db	0.039828163
30	0xbdd56dd3	-0.10421338
31	0x3eb6c730	0.35698843
32	0x3e9b45b6	0.30326623
33	0x3e007a59	0.12546672
34	0x3e56988c	0.2095663
35	0xbcae1655	-0.021250883
36	0x3cafe2cc	0.02147045
37	0x3ec261a9	0.37965134
38	0x3e799106	0.24371728
39	0x3e86754d	0.26261368
40	0xbe94da6a	-0.29072887
41	0xbd2c9d35	-0.04214211
42	0xbdfd3f95	-0.12365643
43	0x3adfce27	0.0017074988
44	0x3e1fa97b	0.15591995
45	0xbea33b59	-0.31881216
46	0xbedbf1ed	-0.42958012
47	0xbe28ee13	-0.16497068
48	0xbda7da77	-0.08195966
49	0x3db47661	0.088116415
50	0xbe39ba00	-0.1813736
51	0xbe86ef1f	-0.2635431
52	0xbe9bf6fa	-0.30461866
53	0xbea01517	-0.3126609
54	0xbe6852ba	-0.22687808
55	0xbea9ad4e	-0.33140033
56	0xbed23e12	-0.4106298
57	0xbeadc780	-0.3394127
58	0xbe0fd80e	-0.14047262
59	0xbe8a64e2	-0.27030092
60	0xbd5a3db6	-0.05328151
61	0x3cc9b1a8	0.024620846
62	0xbc255bd9	-0.010092699
63	0x3e27ce1a	0.16387215
64	0x3eac8f36	0.3370301
65	0x3e27b90b	0.16379182
66	0x3e093400	0.13398743
67	0x3ec82be5	0.3909599
68	0x3e959299	0.29213408
69	0x3e7bc4ea	0.24586836
70	0x3ef78479	0.48343256
71	0x3eccb7c8	0.39983964
72	0x3e913f6f	0.28368708
73	0x3e03d4db	0.12874167
74	0xbcd1e7de	-0.025623258
75	0xbe859be6	-0.26095504
76	0xbeab673a	-0.33477193
77	0xbe2c5335	-0.16828616
78	0x3e42596a	0.18979421
79	0x3eb29f94	0.34887373
80	0xbe9159d5	-0.2838885
81	0xbeaa4386	-0.3325464
82	0xbd6f81a7	-0.058473255
83	0x3e85b5e7	0.26115343
84	0x3ea6b2a6	0.32558173
85	0xbef92fee	-0.4866938
86	0xbd5fe27b	-0.054659348
87	0x3dc31cd2	0.095269814
88	0x3eab0d3c	0.33408535
89	0x3e762213	0.24036436
90	0xbe830258	-0.25587726
91	0xbb9e7184	-0.0048353095
92	0x3d850cac	0.064965576
93	0x3ebeac1f	0.37240693
94	0x3e025f54	0.12731677
95	0xbdb8cd74	-0.09023562
96	0x3c63a36c	0.013893943
97	0x3e9fa7b5	0.31182638
98	0x3e8bc6eb	0.273002
99	0x3e91b51d	0.2845849
100	0xbdc29e35	-0.09502832
101	0xbd4394c1	-0.047749285
102	0x3e52869c	0.20559162
103	0x3e4e4810	0.20144677
104	0x3e29203b	0.16516201
105	0xbd16ca88	-0.036814243
106	0x3e1c69a7	0.15274678
107	0x3e7b3692	0.24532536
108	0x3e6f9864	0.23397976
109	0x3e80de33	0.25169525
110	0x3e2708b0	0.16311908
111	0x3ed570d3	0.4168764
112	0x3d1fe3a5	0.039035458
113	0x3e7f24a0	0.24916315
114	0xbd5a0666	-0.05322876
115	0x3e48daeb	0.1961476
116	0x3e52af3a	0.20574656
117	0xbe376ab7	-0.17911802
118	0x3d642cb6	0.055706702
119	0xbdca6339	-0.098822065
120	0xbbc97780	-0.0061482787
121	0xbd2029d3	-0.039102387
122	0x3d62c814	0.05536659
123	0xbd01e908	-0.031716377
124	0xbe2edfce	-0.17077562
125	0x3e3afa88	0.18259633
126	0x3e2593a0	0.16169596
127	0x3ebed3d5	0.3727099
128	0x3e297957	0.16550194
129	0x3e1c8e69	0.152887
130	0x3e1a486e	0.15066692
131	0x3ed94f8b	0.424435
132	0x3e4611d0	0.19342732
133	0x3e17e441	0.14833166
134	0x3c19daf3	0.0093905805
135	0x3e058e68	0.13042605
136	0x3c86f1a5	0.016472647
137	0x3ea07140	0.31336403
138	0xbd897441	-0.06711627
139	0x3d4c7013	0.04991157
140	0xbd0a495b	-0.033761363
141	0x3d26b3f9	0.04069898
142	0x3e757e4b	0.23973958
143	0xbd5ca897	-0.053871717
144	0xbe137cd7	-0.14403091
145	0xbda89661	-0.082318075
146	0x3d98b459	0.074562736
147	0x3d2136fb	0.039359074
148	0x3c8a280c	0.016864799
149	0x3e2fade5	0.17156179

weight_rho f4 [6, 1, 5, 5]
0	0xc0c21017	-6.064464
1	0xc0bf0a53	-5.9700103
2	0xc0bf0ed6	-5.970561
3	0xc0bf8cc6	-5.9859343
4	0xc0c4f8e7	-6.1553836
5	0xc0c1275a	-6.0360537
6	0xc0c3b147	-6.1153903
7	0xc0c0da1d	-6.026625
8	0xc0be7862	-5.952195
9	0xc0c4f99c	-6.15547
10	0xc0bf7e4e	-5.984168
11	0xc0c3794d	-6.108557
12	0xc0be0d52	-5.939126
13	0xc0c031fc	-6.0061016
14	0xc0c034f7	-6.0064654
15	0xc0c4c5b8	-6.1491356
16	0xc0c8438d	-6.258246
17	0xc0c07806	-6.0146513
18	0xc0bf2cd8	-5.974224
19	0xc0bfacb1	-5.9898305
20	0xc0bc2996	-5.8800764
21	0xc0bdf9fe	-5.9367666
22	0xc0bf08b7	-5.969814
23	0xc0b82c57	-5.7554126
24	0xc0c0ba54	-6.022745
25	0xc0ca283e	-6.3174124
26	0xc0c05ea1	-6.0115514
27	0xc0c11a72	-6.034478
28	0xc0c08495	-6.0161843
29	0xc0c4ec20	-6.153824
30	0xc0bbdfb3	-5.871057
31	0xc0c60985	-6.188662
32	0xc0c2c7a7	-6.0868716
33	0xc0c30e04	-6.095461
34	0xc0c484a1	-6.14119
35	0xc0c3ba74	-6.1165104
36	0xc0bd9e79	-5.925595
37	0xc0c2aa8f	-6.08332
38	0xc0c25b86	-6.0736723
39	0xc0c04196	-6.008006
40	0xc0b577d9	-5.67088
41	0xc0bef347	-5.967197
42	0xc0cac911	-6.3370442
43	0xc0c2a535	-6.082667
44	0xc0bddd1a	-5.93324
45	0xc0c10135	-6.0313973
46	0xc0c1d187	-6.056827
47	0xc0c5fad3	-6.186868
48	0xc0bd3159	-5.912274
49	0xc0beb258	-5.9592705
50	0xc0c10665	-6.0320306
51	0xc0bef339	-5.9671903
52	0xc0c0a702	-6.0203867
53	0xc0c1779a	-6.04585
54	0xc0c5e945	-6.1847253
55	0xc0c7f2da	-6.248395
56	0xc0be27bd	-5.942351
57	0xc0c6ee78	-6.21661
58	0xc0c62e33	-6.1931396
59	0xc0c0dc8f	-6.0269237
60	0xc0bf5725	-5.9793878
61	0xc0c33900	-6.100708
62	0xc0c19e67	-6.050586
63	0xc0bd869f	-5.9226832
64	0xc0bf76e0	-5.983261
65	0xc0c26771	-6.075127
66	0xc0c04a3c	-6.009062
67	0xc0c2fa76	-6.093074
68	0xc0c31134	-6.09585
69	0xc0c4764e	-6.1394415
70	0xc0c6a637	-6.20779
71	0xc0beede9	-5.966542
72	0xc0c0c64a	-6.024205
73	0xc0bd23e1	-5.9106297
74	0xc0bc0b9a	-5.876416
75	0xc0bf80cc	-5.9844723
76	0xc0bddb00	-5.9329834
77	0xc0bd8a9d	-5.9231706
78	0xc0bfe463	-5.996629
79	0xc0bbd676	-5.8699293
80	0xc0bd1a54	-5.909464
81	0xc0c08c96	-6.0171614
82	0xc0c4a17c	-6.1447124
83	0xc0b7f934	-5.7491703
84	0xc0c149d7	-6.0402637
85	0xc0c1132d	-6.033591
86	0xc0b9a841	-5.801789
87	0xc0c0c7db	-6.0243964
88	0xc0c01b38	-6.0033226
89	0xc0c0827d	-6.0159287
90	0xc0c40b3c	-6.1263714
91	0xc0c01457	-6.002483
92	0xc0c0f94d	-6.030432
93	0xc0bee8d4	-5.9659214
94	0xc0bed831	-5.9638906
95	0xc0c65546	-6.1979094
96	0xc0befda9	-5.9684644
97	0xc0be9483	-5.955629
98	0xc0bce429	-5.9028516
99	0xc0ba26f9	-5.8172574
100	0xc0be0635	-5.9382577
101	0xc0b99fe0	-5.800766
102	0xc0b94741	-5.789948
103	0xc0c03abe	-6.0071707
104	0xc0bc7fef	-5.890617
105	0xc0bf62a8	-5.980793
106	0xc0c01dbf	-6.003631
107	0xc0c3dc75	-6.1206613
108	0xc0bcf49f	-5.904861
109	0xc0c683c3	-6.203584
110	0xc0c63f53	-6.19523
111	0xc0c029ef	-6.005119
112	0xc0be6f5c	-5.9510937
113	0xc0c3ef1a	-6.122937
114	0xc0bc9c41	-5.894074
115	0xc0be1896	-5.940501
116	0xc0bc1d59	-5.8785825
117	0xc0c0fb7c	-6.030699
118	0xc0bf8da6	-5.986041
119	0xc0c2ebb5	-6.091273
120	0xc0c14ee3	-6.0408797
121	0xc0c103c9	-6.031712
122	0xc0be8edb	-5.9549384
123	0xc0c1a491	-6.0513387
124	0xc0bcca84	-5.899721
125	0xc0c6b91c	-6.2100964
126	0xc0c1d5aa	-6.057332
127	0xc0bb83cd	-5.859839
128	0xc0bde125	-5.9337335
129	0xc0bfc2d9	-5.992535
130	0xc0b89da8	-5.769245
131	0xc0bdf875	-5.936579
132	0xc0c00fbe	-6.0019217
133	0xc0bd0c51	-5.9077535
134	0xc0c61641	-6.1902165
135	0xc0c25d0e	-6.073859
136	0xc0bd7fab	-5.9218345
137	0xc0bddc85	-5.933169
138	0xc0be6136	-5.9493666
139	0xc0bfe279	-5.9963956
140	0xc0c172c8	-6.0452614
141	0xc0bf844c	-5.9848995
142	0xc0b9e77a	-5.8095064
143	0xc0bcdbe7	-5.9018435
144	0xc0c31cfb	-6.0972877
145	0xc0c22b7b	-6.0678077
146	0xc0c239b9	-6.069546
147	0xc0c3c243	-6.1174636
148	0xc0bf193c	-5.9718304
149	0xc0be755a	-5.951825

bias_mu f4 [6]
0	0xbc457b77	-0.012053362
1	0x3a9066ba	0.0011016943
2	0x3cbc57d1	0.022991093
3	0x3ce7a5d8	0.028277323
4	0x3b2c20c8	0.0026264656
5	0xbd18b5c9	-0.03728274

bias_rho f4 [6]
0	0xc0c8643a	-6.2622347
1	0xc0c80305	-6.2503686
2	0xc0c34bcf	-6.103004
3	0xc0bf1aa2	-5.972001
4	0xc0b7e547	-5.746738
5	0xc0bf4308	-5.9769325

mu f4 [6, 1, 5, 5]
0	0x3e1c2306	0.15247735
1	0x3eb50062	0.35351855
2	0x3e222cc3	0.15837388
3	0xbe0bd6e5	-0.13656195
4	0xbdc9e3ca	-0.098579004
5	0x3e191c67	0.14952241
6	0x3e8d4bbf	0.27596852
7	0x3e69422d	0.2277915
8	0xbd01bfd3	-0.03167708
9	0xbe00f82c	-0.1259467
10	0xbf06d805	-0.5267337
11	0xbe25035c	-0.16114563
12	0x3db28d95	0.08718411
13	0x3dfccb39	0.12343449
14	0xbd3a1eee	-0.045439653
15	0xbe8bb521	-0.27286628
16	0xbe2e2b3b	-0.17008679
17	0x3e5e8fa7	0.21734487
18	0x3e41efb7	0.189391
19	0x3e858b71	0.26082948
20	0x3db0edf1	0.08639134
21	0x3e048953	0.1294301
22	0x3d9c1406	0.07621007
23	0x3dcb3fea	0.099243
24	0x3e491f86	0.19640931
25	0x3ec3504f	0.38147208
26	0x3eeb9935	0.46015325
27	0x3e638666	0.22219238
28	0xbd676899	-0.056496236
29	0x3d2322db	0.039828163
30	0xbdd56dd3	-0.10421338
31	0x3eb6c730	0.35698843
32	0x3e9b45b6	0.30326623
33	0x3e007a59	0.12546672
34	0x3e56988c	0.2095663
35	0xbcae1655	-0.021250883
36	0x3cafe2cc	0.02147045
37	0x3ec261a9	0.37965134
38	0x3e799106	0.24371728
39	0x3e86754d	0.26261368
40	0xbe94da6a	-0.29072887
41	0xbd2c9d35	-0.04214211
42	0xbdfd3f95	-0.12365643
43	0x3adfce27	0.0017074988
44	0x3e1fa97b	0.15591995
45	0xbea33b59	-0.31881216
46	0xbedbf1ed	-0.42958012
47	0xbe28ee13	-0.16497068
48	0xbda7da77	-0.08195966
49	0x3db47661	0.088116415
50	0xbe39ba00	-0.1813736
51	0xbe86ef1f	-0.2635431
52	0xbe9bf6fa	-0.30461866
53	0xbea01517	-0.3126609
54	0xbe6852ba	-0.22687808
55	0xbea9ad4e	-0.33140033
56	0xbed23e12	-0.4106298
57	0xbeadc780	-0.3394127
58	0xbe0fd80e	-0.14047262
59	0xbe8a64e2	-0.27030092
60	0xbd5a3db6	-0.05328151
61	0x3cc9b1a8	0.024620846
62	0xbc255bd9	-0.010092699
63	0x3e27ce1a	0.16387215
64	0x3eac8f36	0.3370301
65	0x3e27b90b	0.16379182
66	0x3e093400	0.13398743
67	0x3ec82be5	0.3909599
68	0x3e959299	0.29213408
69	0x3e7bc4ea	0.24586836
70	0x3ef78479	0.48343256
71	0x3eccb7c8	0.39983964
72	0x3e913f6f	0.28368708
73	0x3e03d4db	0.12874167
74	0xbcd1e7de	-0.025623258
75	0xbe859be6	-0.26095504
76	0xbeab673a	-0.33477193
77	0xbe2c5335	-0.16828616
78	0x3e42596a	0.18979421
79	0x3eb29f94	0.34887373
80	0xbe9159d5	-0.2838885
81	0xbeaa4386	-0.3325464
82	0xbd6f81a7	-0.058473255
83	0x3e85b5e7	0.26115343
84	0x3ea6b2a6	0.32558173
85	0xbef92fee	-0.4866938
86	0xbd5fe27b	-0.054659348
87	0x3dc31cd2	0.095269814
88	0x3eab0d3c	0.33408535
89	0x3e762213	0.24036436
90	0xbe830258	-0.25587726
91	0xbb9e7184	-0.0048353095
92	0x3d850cac	0.064965576
93	0x3ebeac1f	0.37240693
94	0x3e025f54	0.12731677
95	0xbdb8cd74	-0.09023562
96	0x3c63a36c	0.013893943
97	0x3e9fa7b5	0.31182638
98	0x3e8bc6eb	0.273002
99	0x3e91b51d	0.2845849
100	0xbdc29e35	-0.09502832
101	0xbd4394c1	-0.047749285
102	0x3e52869c	0.20559162
103	0x3e4e4810	0.20144677
104	0x3e29203b	0.16516201
105	0xbd16ca88	-0.036814243
106	0x3e1c69a7	0.15274678
107	0x3e7b3692	0.24532536
108	0x3e6f9864	0.23397976
109	0x3e80de33	0.25169525
110	0x3e2708b0	0.16311908
111	0x3ed570d3	0.4168764
112	0x3d1fe3a5	0.039035458
113	0x3e7f24a0	0.24916315
114	0xbd5a0666	-0.05322876
115	0x3e48daeb	0.1961476
116	0x3e52af3a	0.20574656
117	0xbe376ab7	-0.17911802
118	0x3d642cb6	0.055706702
119	0xbdca6339	-0.098822065
120	0xbbc97780	-0.0061482787
121	0xbd2029d3	-0.039102387
122	0x3d62c814	0.05536659
123	0xbd01e908	-0.031716377
124	0xbe2edfce	-0.17077562
125	0x3e3afa88	0.18259633
126	0x3e2593a0	0.16169596
127	0x3ebed3d5	0.3727099
128	0x3e297957	0.16550194
129	0x3e1c8e69	0.152887
130	0x3e1a486e	0.15066692
131	0x3ed94f8b	0.424435
132	0x3e4611d0	0.19342732
133	0x3e17e441	0.14833166
134	0x3c19daf3	0.0093905805
135	0x3e058e68	0.13042605
136	0x3c86f1a5	0.016472647
137	0x3ea07140	0.31336403
138	0xbd897441	-0.06711627
139	0x3d4c7013	0.04991157
140	0xbd0a495b	-0.033761363
141	0x3d26b3f9	0.04069898
142	0x3e757e4b	0.23973958
143	0xbd5ca897	-0.053871717
144	0xbe137cd7	-0.14403091
145	0xbda89661	-0.082318075
146	0x3d98b459	0.074562736
147	0x3d2136fb	0.039359074
148	0x3c8a280c	0.016864799
149	0x3e2fade5	0.17156179

rho f4 [6, 1, 5, 5]
0	0xc0c21017	-6.064464
1	0xc0bf0a53	-5.9700103
2	0xc0bf0ed6	-5.970561
3	0xc0bf8cc6	-5.9859343
4	0xc0c4f8e7	-6.1553836
5	0xc0c1275a	-6.0360537
6	0xc0c3b147	-6.1153903
7	0xc0c0da1d	-6.026625
8	0xc0be7862	-5.952195
9	0xc0c4f99c	-6.15547
10	0xc0bf7e4e	-5.984168
11	0xc0c3794d	-6.108557
12	0xc0be0d52	-5.939126
13	0xc0c031fc	-6.0061016
14	0xc0c034f7	-6.0064654
15	0xc0c4c5b8	-6.1491356
16	0xc0c8438d	-6.258246
17	0xc0c07806	-6.0146513
18	0xc0bf2cd8	-5.974224
19	0xc0bfacb1	-5.9898305
20	0xc0bc2996	-5.8800764
21	0xc0bdf9fe	-5.9367666
22	0xc0bf08b7	-5.969814
23	0xc0b82c57	-5.7554126
24	0xc0c0ba54	-6.022745
25	0xc0ca283e	-6.3174124
26	0xc0c05ea1	-6.0115514
27	0xc0c11a72	-6.034478
28	0xc0c08495	-6.0161843
29	0xc0c4ec20	-6.153824
30	0xc0bbdfb3	-5.871057
31	0xc0c60985	-6.188662
32	0xc0c2c7a7	-6.0868716
33	0xc0c30e04	-6.095461
34	0xc0c484a1	-6.14119
35	0xc0c3ba74	-6.1165104
36	0xc0bd9e79	-5.925595
37	0xc0c2aa8f	-6.08332
38	0xc0c25b86	-6.0736723
39	0xc0c04196	-6.008006
40	0xc0b577d9	-5.67088
41	0xc0bef347	-5.967197
42	0xc0cac911	-6.3370442
43	0xc0c2a535	-6.082667
44	0xc0bddd1a	-5.93324
45	0xc0c10135	-6.0313973
46	0xc0c1d187	-6.056827
47	0xc0c5fad3	-6.186868
48	0xc0bd3159	-5.912274
49	0xc0beb258	-5.9592705
50	0xc0c10665	-6.0320306
51	0xc0bef339	-5.9671903
52	0xc0c0a702	-6.0203867
53	0xc0c1779a	-6.04585
54	0xc0c5e945	-6.1847253
55	0xc0c7f2da	-6.248395
56	0xc0be27bd	-5.942351
57	0xc0c6ee78	-6.21661
58	0xc0c62e33	-6.1931396
59	0xc0c0dc8f	-6.0269237
60	0xc0bf5725	-5.9793878
61	0xc0c33900	-6.100708
62	0xc0c19e67	-6.050586
63	0xc0bd869f	-5.9226832
64	0xc0bf76e0	-5.983261
65	0xc0c26771	-6.075127
66	0xc0c04a3c	-6.009062
67	0xc0c2fa76	-6.093074
68	0xc0c31134	-6.09585
69	0xc0c4764e	-6.1394415
70	0xc0c6a637	-6.20779
71	0xc0beede9	-5.966542
72	0xc0c0c64a	-6.024205
73	0xc0bd23e1	-5.9106297
74	0xc0bc0b9a	-5.876416
75	0xc0bf80cc	-5.9844723
76	0xc0bddb00	-5.9329834
77	0xc0bd8a9d	-5.9231706
78	0xc0bfe463	-5.996629
79	0xc0bbd676	-5.8699293
80	0xc0bd1a54	-5.909464
81	0xc0c08c96	-6.0171614
82	0xc0c4a17c	-6.1447124
83	0xc0b7f934	-5.7491703
84	0xc0c149d7	-6.0402637
85	0xc0c1132d	-6.033591
86	0xc0b9a841	-5.801789
87	0xc0c0c7db	-6.0243964
88	0xc0c01b38	-6.0033226
89	0xc0c0827d	-6.0159287
90	0xc0c40b3c	-6.1263714
91	0xc0c01457	-6.002483
92	0xc0c0f94d	-6.030432
93	0xc0bee8d4	-5.9659214
94	0xc0bed831	-5.9638906
95	0xc0c65546	-6.1979094
96	0xc0befda9	-5.9684644
97	0xc0be9483	-5.955629
98	0xc0bce429	-5.9028516
99	0xc0ba26f9	-5.8172574
100	0xc0be0635	-5.9382577
101	0xc0b99fe0	-5.800766
102	0xc0b94741	-5.789948
103	0xc0c03abe	-6.0071707
104	0xc0bc7fef	-5.890617
105	0xc0bf62a8	-5.980793
106	0xc0c01dbf	-6.003631
107	0xc0c3dc75	-6.1206613
108	0xc0bcf49f	-5.904861
109	0xc0c683c3	-6.203584
110	0xc0c63f53	-6.19523
111	0xc0c029ef	-6.005119
112	0xc0be6f5c	-5.9510937
113	0xc0c3ef1a	-6.122937
114	0xc0bc9c41	-5.894074
115	0xc0be1896	-5.940501
116	0xc0bc1d59	-5.8785825
117	0xc0c0fb7c	-6.030699
118	0xc0bf8da6	-5.986041
119	0xc0c2ebb5	-6.091273
120	0xc0c14ee3	-6.0408797
121	0xc0c103c9	-6.031712
122	0xc0be8edb	-5.9549384
123	0xc0c1a491	-6.0513387
124	0xc0bcca84	-5.899721
125	0xc0c6b91c	-6.2100964
126	0xc0c1d5aa	-6.057332
127	0xc0bb83cd	-5.859839
128	0xc0bde125	-5.9337335
129	0xc0bfc2d9	-5.992535
130	0xc0b89da8	-5.769245
131	0xc0bdf875	-5.936579
132	0xc0c00fbe	-6.0019217
133	0xc0bd0c51	-5.9077535
134	0xc0c61641	-6.1902165
135	0xc0c25d0e	-6.073859
136	0xc0bd7fab	-5.9218345
137	0xc0bddc85	-5.933169
138	0xc0be6136	-5.9493666
139	0xc0bfe279	-5.9963956
140	0xc0c172c8	-6.0452614
141	0xc0bf844c	-5.9848995
142	0xc0b9e77a	-5.8095064
143	0xc0bcdbe7	-5.9018435
144	0xc0c31cfb	-6.0972877
145	0xc0c22b7b	-6.0678077
146	0xc0c239b9	-6.069546
147	0xc0c3c243	-6.1174636
148	0xc0bf193c	-5.9718304
149	0xc0be755a	-5.951825

eps_w f4 [6, 1, 5, 5]
0	0x3f8ab59d	1.0836674
1	0x3f8c22f2	1.0948164
2	0x3f56d690	0.83921146
3	0x3ff5086c	1.9143195
4	0x3eff8396	0.4990508
5	0x3f39cd9f	0.7257938
6	0x3fa190ac	1.2622275
7	0x3f9be59f	1.217945
8	0x3dff2a87	0.12459283
9	0x3dd6ab91	0.104819424
10	0xbf14018f	-0.5781488
11	0xbf404974	-0.7511208
12	0x3f160ebc	0.5861623
13	0xbea414d1	-0.32047132
14	0x3f7da20c	0.9907539
15	0x3f983ec2	1.1894152
16	0x3fc321b5	1.5244662
17	0xbf2039ca	-0.6258818
18	0x3fd4f19c	1.6636233
19	0xbbc0474a	-0.0058678733
20	0xbf610b65	-0.8790801
21	0xbf72929c	-0.9475496
22	0xbdf5a8d0	-0.11995089
23	0xbfabcea5	-1.3422438
24	0xbe634e5a	-0.22197857
25	0xbf4cd203	-0.8000795
26	0x3ffc3550	1.970377
27	0xc0243fd2	-2.5663953
28	0xbecf6fc8	-0.4051497
29	0x3f722d12	0.9460002
30	0xbead9df3	-0.33909568
31	0x3ebae2ae	0.36501068
32	0x3e3fa0ef	0.18713735
33	0x3f9c3a8c	1.2205367
34	0xbfa23572	-1.267256
35	0x3ffb2f1e	1.9623754
36	0xbf93d390	-1.1548939
37	0x3d5e0066	0.0541996
38	0xbf6b8f7f	-0.9201583
39	0x3eabbe5b	0.33543667
40	0xbf6ef883	-0.9334795
41	0x3f3f5e61	0.74753386
42	0x3eb780c9	0.35840443
43	0x3f162497	0.5864958
44	0x3ddbe7f3	0.107376
45	0x3d9f8531	0.07789076
46	0xbf9a2021	-1.2041055
47	0x402bef3e	2.6864772
48	0x3df055dd	0.11735127
49	0x3f6af65f	0.9178218
50	0xbd303125	-0.043015618
51	0xbf33df36	-0.7026247
52	0x3e5d5ae2	0.216167
53	0xbf7db153	-0.990987
54	0x3fdfb515	1.7477137
55	0x3f2cbe50	0.67477894
56	0xbc4e70ad	-0.012600106
57	0xbfd19861	-1.6374627
58	0xbfc05c64	-1.5028195
59	0x3eb7c706	0.3589403
60	0xbfcb3a65	-1.5877196
61	0x3ea57204	0.3231355
62	0xbf0e91fc	-0.55691504
63	0xbd1f827e	-0.038942806
64	0x3fe02ba7	1.7513322
65	0x3f636084	0.88819146
66	0x3e23ebcb	0.16007917
67	0x3f8b68b2	1.0891325
68	0xbffaa963	-1.9582943
69	0x40024340	2.0353546
70	0xbf838e8c	-1.0277877
71	0x3e8b6d83	0.27231988
72	0x3f9b27cc	1.212152
73	0x3e3a06f4	0.18166715
74	0x3e575ed0	0.21032262
75	0x3ffb3d5a	1.9628098
76	0xbe027ca9	-0.12742867
77	0xbf4f5b50	-0.80998707
78	0x3f5225a9	0.82088715
79	0x3da88da1	0.082301386
80	0xbfc11237	-1.5083684
81	0x3e9e3f4a	0.3090766
82	0xbf8b2d53	-1.0873207
83	0xbf834b86	-1.0257423
84	0x4020d9d4	2.5132952
85	0xbd1df950	-0.03856784
86	0xbf83ad31	-1.0287229
87	0x3f0a893b	0.5411565
88	0x3e79418e	0.24341413
89	0xbfd20627	-1.6408128
90	0xbf00380e	-0.5008553
91	0xbfaf2ca8	-1.3685503
92	0x3fddb4e7	1.7320832
93	0xbe5c979d	-0.21542211
94	0xbfb9036f	-1.4454173
95	0x3f48ca90	0.78434086
96	0x3ec0f216	0.37684697
97	0x3f2e4c67	0.6808533
98	0x3d7dc19a	0.06195221
99	0x3f6ce696	0.92539346
100	0xbf266517	-0.64998
101	0x3f6dda39	0.92911106
102	0xbfea10d2	-1.8286383
103	0xbd12fef5	-0.035887677
104	0x3f8a7a95	1.0818659
105	0x400619d0	2.0953255
106	0xbf6accd2	-0.9171878
107	0xbfdacc43	-1.7093586
108	0xbe8d3262	-0.27577502
109	0xbe38f40f	-0.18061851
110	0x3e3bdb58	0.18345392
111	0x3f2f60da	0.6850716
112	0x3f203b13	0.6259014
113	0xbf8ccc99	-1.0999938
114	0x3f48f614	0.78500485
115	0xbe0aaeaa	-0.13543192
116	0x3d056e9b	0.032576185
117	0xbebde12d	-0.37085858
118	0xbf888557	-1.0665692
119	0x3fbab12a	1.4585316
120	0xbe821077	-0.25403187
121	0x3f917c2a	1.1366017
122	0xbf84c513	-1.0372642
123	0xbf3da77a	-0.74083674
124	0xbfba894a	-1.4573147
125	0xc009dd15	-2.1541188
126	0xbe268a8b	-0.16263787
127	0x3eb3e38f	0.3513455
128	0xbe020c2e	-0.12699959
129	0xbe837e50	-0.25682306
130	0x3f9927c0	1.1965256
131	0xbd5f1ee2	-0.05447281
132	0x3f355145	0.7082713
133	0x3f337f5a	0.701162
134	0xbf505c8b	-0.8139121
135	0x3fe2669e	1.7687566
136	0x3ed7905c	0.42102325
137	0x3f38c0ea	0.72169363
138	0x3f6b2ba9	0.91863495
139	0x3e9e32e3	0.30898198
140	0x3f918ab9	1.137046
141	0x3e431532	0.19051054
142	0xbff04eca	-1.8774045
143	0xbf099efd	-0.5375822
144	0x3f09f1ab	0.5388438
145	0xbdce93ee	-0.10086809
146	0xbfa1d8ed	-1.2644325
147	0xbe2e9efc	-0.17052835
148	0xbe4e7057	-0.20160042
149	0x3f590063	0.84766215

sigma f4 [6, 1, 5, 5]
0	0x3b182110	0.0023213066
1	0x3b272dfd	0.002550959
2	0x3b271673	0.0025495559
3	0x3b248ab8	0.0025107097
4	0x3b0aebfc	0.0021197787
5	0x3b1c820a	0.002388122
6	0x3b109587	0.0022061781
7	0x3b1dfd22	0.0024107178
8	0x3b2a2e45	0.002596752
9	0x3b0ae8ea	0.0021195957
10	0x3b24d516	0.0025151423
11	0x3b119307	0.002221288
12	0x3b2c6aa1	0.0026308673
13	0x3b2142c2	0.002460644
14	0x3b2133c2	0.00245975
15	0x3b0bcaa5	0.0021330502
16	0x3afab5ef	0.0019127707
17	0x3b1fe3bc	0.0024397215
18	0x3b267a40	0.0025402457
19	0x3b23e71f	0.0025009585
20	0x3b36e3be	0.002790674
21	0x3b2cd2c1	0.0026370736
22	0x3b273662	0.0025514592
23	0x3b4f2213	0.0031606003
24	0x3b1e9a2d	0.0024200783
25	0x3aec51ff	0.0018029808
26	0x3b2062a9	0.0024472869
27	0x3b1cc123	0.002391883
28	0x3b1fa51b	0.0024359885
29	0x3b0b236f	0.0021230837
30	0x3b388b58	0.0028159227
31	0x3b066123	0.0020504675
32	0x3b14c316	0.0022699288
33	0x3b137dbf	0.002250537
34	0x3b0ce7d1	0.0021500478
35	0x3b106c23	0.002203711
36	0x3b2ec322	0.0026666601
37	0x3b154a6d	0.0022779957
38	0x3b16bc83	0.0023000545
39	0x3b20f44e	0.002455968
40	0x3b615f63	0.003438913
41	0x3b27a668	0.0025581364
42	0x3ae7baed	0.001767961
43	0x3b15635f	0.0022794825
44	0x3b2d6eda	0.0026463778
45	0x3b1d3ccf	0.0023992544
46	0x3b194b47	0.0023390816
47	0x3b069ed6	0.002054145
48	0x3b311a47	0.002702372
49	0x3b28fb82	0.0025784676
50	0x3b1d235c	0.0023977375
51	0x3b27a6b2	0.0025581536
52	0x3b1ef9ee	0.0024257856
53	0x3b1afbec	0.0023648692
54	0x3b06e8b2	0.0020585475
55	0x3afd30b3	0.0019316882
56	0x3b2bdcb4	0.0026224079
57	0x3b02adf4	0.001994011
58	0x3b05c79b	0.0020413164
59	0x3b1df113	0.002409999
60	0x3b259f07	0.002527179
61	0x3b12b85f	0.0022387726
62	0x3b1a40ab	0.002353708
63	0x3b2f4569	0.0026744253
64	0x3b24fb53	0.0025174215
65	0x3b16847a	0.0022967146
66	0x3b20c8e2	0.0024533798
67	0x3b13d7e2	0.0022559096
68	0x3b136f13	0.0022496625
69	0x3b0d26e0	0.0021538064
70	0x3b03d607	0.0020116584
71	0x3b27c27f	0.0025598106
72	0x3b1e5f02	0.0024165516
73	0x3b3164c8	0.0027068127
74	0x3b378f30	0.002800893
75	0x3b24c844	0.0025143782
76	0x3b2d7a3b	0.002647056
77	0x3b2f2f94	0.002673124
78	0x3b22cb2c	0.0024840338
79	0x3b38c093	0.0028190955
80	0x3b3199b0	0.0027099662
81	0x3b1f7d3f	0.0024336127
82	0x3b0c691d	0.0021424957
83	0x3b506d96	0.00318036
84	0x3b1bd9eb	0.0023781012
85	0x3b1ce4b8	0.0023940038
86	0x3b45c2b3	0.0030175864
87	0x3b1e5744	0.00241609
88	0x3b21b57f	0.002467483
89	0x3b1faf8b	0.0024366106
90	0x3b0f01be	0.0021821107
91	0x3b21d83b	0.0024695534
92	0x3b1d63a1	0.0024015682
93	0x3b27dd1e	0.0025613974
94	0x3b28345e	0.002566598
95	0x3b0524ce	0.0020316127
96	0x3b27701d	0.0025549002
97	0x3b299920	0.0025878623
98	0x3b32c6e7	0.00272792
99	0x3b42bac1	0.0029713365
100	0x3b2c90eb	0.0026331495
101	0x3b45f66e	0.0030206698
102	0x3b481cce	0.0030534747
103	0x3b2116b3	0.002458018
104	0x3b34f982	0.0027614539
105	0x3b256391	0.0025236348
106	0x3b21a8be	0.0024667229
107	0x3b0fd329	0.002194593
108	0x3b326b28	0.0027224515
109	0x3b04641f	0.0020201278
110	0x3b058029	0.002037058
111	0x3b216b4c	0.0024630604
112	0x3b2a5e39	0.0025996102
113	0x3b0f7f8c	0.0021896092
114	0x3b3459d8	0.0027519371
115	0x3b2c2e0d	0.0026272566
116	0x3b3729a5	0.0027948406
117	0x3b1d58e8	0.002400929
118	0x3b24863a	0.002510442
119	0x3b141c09	0.0022599718
120	0x3b1bc160	0.0023766384
121	0x3b1d3029	0.0023985005
122	0x3b29b713	0.0025896474
123	0x3b1a2301	0.00235194
124	0x3b335633	0.002736461
125	0x3b03885a	0.0020070286
126	0x3b19377e	0.0023379023
127	0x3b3a9f8c	0.0028476445
128	0x3b2d58fa	0.002645074
129	0x3b2375ee	0.0024942118
130	0x3b4c4ac6	0.0031172498
131	0x3b2cdb09	0.0026375672
132	0x3b21ef77	0.0024709383
133	0x3b31e76a	0.002714599
134	0x3b062bc2	0.002047286
135	0x3b16b54e	0.002299625
136	0x3b2f6b76	0.0026766933
137	0x3b2d7201	0.0026465657
138	0x3b2aa984	0.002604098
139	0x3b22d4e6	0.0024846136
140	0x3b1b1340	0.0023662597
141	0x3b24b646	0.0025133057
142	0x3b443e11	0.002994422
143	0x3b32f500	0.0027306676
144	0x3b1338ea	0.0022464343
145	0x3b179f38	0.0023135673
146	0x3b175bdf	0.002309553
147	0x3b1048f3	0.0022016137
148	0x3b26e042	0.0025463258
149	0x3b2a3e5f	0.0025977117

w f4 [6, 1, 5, 5]
0	0x3e1eb674	0.15499288
1	0x3eb66e72	0.35631138
2	0x3e245da6	0.16051349
3	0xbe06eaf4	-0.13175565
4	0xbdc7b928	-0.097521126
5	0x3e1ae2c6	0.1512557
6	0x3e8eb8be	0.27875322
7	0x3e6c43dd	0.23072763
8	0xbd006c92	-0.03135354
9	0xbe00bdee	-0.12572452
10	0xbf073751	-0.5281878
11	0xbe26b8bc	-0.16281408
12	0x3db5b618	0.08872622
13	0x3dfb2dc9	0.12264592
14	0xbd30238b	-0.043002646
15	0xbe8a6897	-0.2703292
16	0xbe2b2ed5	-0.16717084
17	0x3e5cff5d	0.21581788
18	0x3e46438a	0.19361702
19	0x3e858985	0.26081482
20	0x3dabe7bf	0.083938114
21	0x3e01fa4a	0.12693134
22	0x3d9b7391	0.07590402
23	0x3dc28fbb	0.09500071
24	0x3e4892b3	0.19587211
25	0x3ec2933c	0.38002956
26	0x3eee113f	0.46497533
27	0x3e5d3d39	0.21605386
28	0xbd6b737b	-0.057483178
29	0x3d2b5cdb	0.0418366
30	0xbdd76273	-0.105168246
31	0x3eb7294a	0.3577369
32	0x3e9b7d64	0.30369103
33	0x3e034a6c	0.12821358
34	0x3e53ce4b	0.20684163
35	0xbc8aa92e	-0.016926374
36	0x3c96a82e	0.018390741
37	0x3ec271d8	0.3797748
38	0x3e776638	0.24160087
39	0x3e86e148	0.2634375
40	0xbe967f2d	-0.29393902
41	0xbd24c806	-0.04022982
42	0xbdfbf35f	-0.12302279
43	0x3b4784a8	0.003044406
44	0x3e1ff3f8	0.1562041
45	0xbea322da	-0.31862527
46	0xbedd6317	-0.43239662
47	0xbe234774	-0.15945226
48	0xbda73433	-0.08164253
49	0x3db94f25	0.09048299
50	0xbe39d50a	-0.18147674
51	0xbe87dab6	-0.2653405
52	0xbe9bb23f	-0.30409428
53	0xbea14844	-0.31500447
54	0xbe64a399	-0.22328033
55	0xbea90275	-0.33009687
56	0xbed24267	-0.41066286
57	0xbeaf7377	-0.3426778
58	0xbe12fc3e	-0.14354035
59	0xbe89f380	-0.26943588
60	0xbd6aad12	-0.05729396
61	0x3ccf9ecb	0.025344273
62	0xbc3ad5ce	-0.011403514
63	0x3e27b2cd	0.16376801
64	0x3eaed116	0.34143895
65	0x3e29cfcc	0.16583174
66	0x3e099af4	0.13438016
67	0x3ec96df0	0.39341688
68	0x3e935129	0.28772858
69	0x3e80210c	0.25025213
70	0x3ef67579	0.481365
71	0x3ecd1326	0.40053672
72	0x3e92bf60	0.28661633
73	0x3e0455c3	0.1292334
74	0xbccd1474	-0.025034167
75	0xbe831507	-0.2560198
76	0xbeab9370	-0.33510923
77	0xbe2e8acd	-0.17045136
78	0x3e446ff4	0.19183332
79	0x3eb2bdfd	0.34910575
80	0xbe93719b	-0.28797612
81	0xbea9e0ef	-0.33179423
82	0xbd790c65	-0.060802836
83	0x3e840a51	0.2578912
84	0x3ea9c20c	0.3315586
85	0xbef93c08	-0.48678613
86	0xbd6c9988	-0.057763606
87	0x3dc5ca51	0.096577294
88	0x3eab5bf5	0.33468595
89	0x3e720a04	0.23636633
90	0xbe839198	-0.25697017
91	0xbc069848	-0.008215018
92	0x3d8d9190	0.069125295
93	0x3ebe63cc	0.37185514
94	0x3dfd25a6	0.123606965
95	0xbdb58a03	-0.08864214
96	0x3c7369ba	0.01485675
97	0x3ea08ea6	0.31358832
98	0x3e8bdd12	0.273171
99	0x3e931d84	0.28733456
100	0xbdc61f86	-0.09673981
101	0xbd3815e3	-0.044942748
102	0x3e4ccee0	0.20000792
103	0x3e4e30f0	0.20135856
104	0x3e2c2f64	0.16814953
105	0xbd0121d5	-0.031526405
106	0x3e1a1891	0.15048434
107	0x3e775f2d	0.241574
108	0x3e6ed394	0.23322898
109	0x3e80ae60	0.25133038
110	0x3e276aa7	0.16349278
111	0x3ed64dfe	0.41856378
112	0x3d268dc8	0.040662557
113	0x3e7cad3c	0.24675459
114	0xbd512d2d	-0.051068474
115	0x3e487da5	0.1957918
116	0x3e52c718	0.2058376
117	0xbe385421	-0.18000843
118	0x3d593516	0.053029142
119	0xbdc3a30b	-0.09552582
120	0xbbdd400e	-0.0067520207
121	0xbd14ff42	-0.036376245
122	0x3d57c772	0.05268044
123	0xbd090c13	-0.03345878
124	0xbe32f534	-0.1747635
125	0x3e368d2f	0.17827295
126	0x3e252ff3	0.16131572
127	0x3ebf56f8	0.3737104
128	0x3e292148	0.16516602
129	0x3e1be67d	0.15224643
130	0x3e1e1a31	0.15439679
131	0x3ed93cb6	0.4242913
132	0x3e47dc97	0.19517742
133	0x3e19d736	0.15023503
134	0x3bfd1bdf	0.0077242698
135	0x3e09b8ac	0.13449353
136	0x3c902d08	0.017599598
137	0x3ea16b99	0.31527403
138	0xbd848e0b	-0.06472405
139	0x3d4f9511	0.05067927
140	0xbcfe883a	-0.031070817
141	0x3d28aa0b	0.04117779
142	0x3e6fbc96	0.23411784
143	0xbd62abdb	-0.055339675
144	0xbe123f85	-0.14282043
145	0xbda910bb	-0.08255144
146	0x3d92b948	0.07164246
147	0x3d1fad4e	0.038983636
148	0x3c85f37e	0.016351458
149	0x3e31ef22	0.17376378

mu f4 [6]
0	0xbc457b77	-0.012053362
1	0x3a9066ba	0.0011016943
2	0x3cbc57d1	0.022991093
3	0x3ce7a5d8	0.028277323
4	0x3b2c20c8	0.0026264656
5	0xbd18b5c9	-0.03728274

rho f4 [6]
0	0xc0c8643a	-6.2622347
1	0xc0c80305	-6.2503686
2	0xc0c34bcf	-6.103004
3	0xc0bf1aa2	-5.972001
4	0xc0b7e547	-5.746738
5	0xc0bf4308	-5.9769325

eps_w f4 [6]
0	0x3f885f6a	1.0654118
1	0xbf0e8383	-0.5566942
2	0xbf76c0f2	-0.9638816
3	0x3ec28308	0.37990594
4	0xbf4be2d5	-0.79642993
5	0x3be83609	0.0070865196

sigma f4 [6]
0	0x3af9b6ae	0.0019051635
1	0x3afcb106	0.0019278831
2	0x3b126253	0.0022336438
3	0x3b26d8fa	0.0025458918
4	0x3b50ef52	0.0031880927
5	0x3b260720	0.0025333837

w f4 [6]
0	0xbc2439ef	-0.010023578
1	0x37eeae40	2.8452952e-05
2	0x3caab4b7	0.020838125
3	0x3cef9235	0.029244522
4	0x38b73c20	8.737319e-05
5	0xbd18a2f6	-0.037264787

weight_mu f4 [16, 6, 5, 5]
0	0x3d4b7856	0.04967531
1	0x3d8f98ab	0.07011541
2	0x3b2568cc	0.0025239466
3	0x3dd42674	0.10358897
4	0x3e4a1e53	0.1973813
5	0x3e4fead9	0.20304431
6	0x3e4d1ba9	0.20030083
7	0x3d31393a	0.043267466
8	0xbdf3c314	-0.119024426
9	0x3c23172b	0.009954254
10	0xbe02f94c	-0.12790412
11	0x3e340331	0.17579342
12	0x3d05344e	0.032520585
13	0xbe58bf58	-0.21166742
14	0x3dc8bb7e	0.09801386
15	0xbd7dd160	-0.061967254
16	0xbd44c963	-0.04804362
17	0x3e531708	0.20614254
18	0x3e9bb80a	0.30413848
19	0x3d658368	0.056033522
20	0x3c86aa41	0.016438605
21	0x3ce14548	0.027498856
22	0x3df22b09	0.118246146
23	0x3da5d405	0.0809708
24	0x3e60ff68	0.2197243
25	0x3e65faaf	0.2245891
26	0x3d640f2f	0.055678543
27	0xbdc9a523	-0.098459505
28	0xbe582874	-0.21109182
29	0xbd1bd990	-0.03804928
30	0x3c2a3d23	0.010390553
31	0x3e690cfa	0.22758856
32	0x3d017147	0.03160217
33	0xbc46f64a	-0.012143681
34	0x3d1d5ba2	0.038417466
35	0xbe015360	-0.12629461
36	0x3c8e641d	0.017381722
37	0x3d5b715a	0.053574897
38	0xbc35df34	-0.011100579
39	0xbd7dde0e	-0.061979346
40	0xbb078ba8	-0.0020682607
41	0x3d0b9d89	0.034085784
42	0xbdf1a680	-0.117993355
43	0x3d692002	0.05691529
44	0xbd5e3533	-0.054249953
45	0xbde20d3e	-0.11037682
46	0x3caebe36	0.021330934
47	0x3d8b83b2	0.06812228
48	0x3d97d0e8	0.074128926
49	0xbda6c554	-0.08143106
50	0xbdb4284d	-0.08796749
51	0xbd4be465	-0.04977836
52	0x3d05e5ac	0.032689735
53	0x3da50a1d	0.080585696
54	0x3e4de617	0.20107304
55	0xbe3ab3f0	-0.18232703
56	0x3da9c120	0.08288789
57	0xbe6e55ef	-0.23274969
58	0x3d8ba6b0	0.068189025
59	0x3d936b87	0.071982436
60	0x3df618a4	0.120164186
61	0xbe6d418c	-0.23169535
62	0x3ca0437f	0.019563435
63	0xbe45fc2f	-0.19334482
64	0x3d8c8e27	0.06863051
65	0xbd9f50c7	-0.07779079
66	0xbe62e28c	-0.22156733
67	0xbdab92a4	-0.08377579
68	0xbe4db858	-0.20089853
69	0xbd0e13a5	-0.034686703
70	0xbe24c252	-0.16089752
71	0xbe12e8f4	-0.14346677
72	0xbd17a592	-0.037023135
73	0xbb3b7288	-0.0028602201
74	0x3e922bc8	0.28549027
75	0xbe0c808d	-0.13720913
76	0xbb51c675	-0.0032009159
77	0xbd293f02	-0.041319855
78	0xbe609bfd	-0.21934505
79	0xbe01e161	-0.12683631
80	0x3e6d3529	0.2316481
81	0xbdf2779a	-0.118392184
82	0x3a6e1657	0.00090823084
83	0x3c394af1	0.011309371
84	0xbe480989	-0.19534887
85	0x3e0cf8af	0.1376674
86	0x3d67754a	0.05650834
87	0xbc34bc4f	-0.011031224
88	0xbe08f670	-0.13375258
89	0x3d99050b	0.07471665
90	0xbe02329b	-0.12714617
91	0x3d07d2dd	0.03316008
92	0x3e16f640	0.14742374
93	0xbdf05938	-0.11735767
94	0x3dee910c	0.11648759
95	0x3e55a609	0.20864119
96	0x3d827383	0.06369688
97	0x3e793663	0.24337153
98	0xbd0a8b6c	-0.03382437
99	0x3e6acd04	0.2292977
100	0xbdc66858	-0.09687871
101	0x3d8a41bb	0.06750818
102	0xbd4e69ac	-0.050393745
103	0xbd9ff363	-0.07810094
104	0x3d345bce	0.044032864
105	0x3da7a0da	0.08184977
106	0xbe6059cf	-0.2190926
107	0x3cc711c5	0.024300465
108	0xbe12961c	-0.14315075
109	0xbd795a61	-0.060877208
110	0x3d2a1882	0.04152728
111	0x3e0a3e50	0.13500333
112	0xbe1607b4	-0.14651376
113	0x3dbd9c8e	0.09258376
114	0xbdfb8c74	-0.12282649
115	0xbc802305	-0.015641699
116	0xbd5994c9	-0.05312041
117	0xbd8b86eb	-0.06812843
118	0x3d8cf35f	0.06882357
119	0xbe6213fc	-0.22077936
120	0x3e57c4a7	0.2107111
121	0x3dcff702	0.10154535
122	0x3cc60ca1	0.024175944
123	0x3dd5aa5e	0.104328856
124	0x3e2c9842	0.16854957
125	0xbdd66ece	-0.10470353
126	0xbe49d255	-0.19709142
127	0xbda6ca3e	-0.081440434
128	0xbe4bfeae	-0.19921371
129	0x3e16651e	0.1468701
130	0xbda3a29b	-0.07989999
131	0xbe413965	-0.1886955
132	0x3da1f27f	0.079075806
133	0xbcf56ecf	-0.029960064
134	0xbdf58975	-0.119891085
135	0xbd0531a8	-0.03251806
136	0x3e28b720	0.16476107
137	0x3e021f3a	0.12707224
138	0xbdf6da00	-0.12053299
139	0xbdfd830e	-0.12378512
140	0x3e122e29	0.14275421
141	0xbcddba36	-0.027066331
142	0x3db86421	0.09003473
143	0x3dfae25a	0.122502044
144	0x3cc5c679	0.02414249
145	0xbb82cfcf	-0.003992058
146	0xbe2e3c4d	-0.1701519
147	0x3e5c3046	0.2150279
148	0x3e85ad2a	0.26108676
149	0xbd2ef5ef	-0.04271501
150	0xbdc0fdf2	-0.09423436
151	0x3d8f0a2c	0.06984362
152	0x3d3013bd	0.042987574
153	0xbda186a4	-0.07887009
154	0x3d67b534	0.056569293
155	0xbdd7a159	-0.105288215
156	0xbcf196ee	-0.029490914
157	0xbd10a5ea	-0.035314478
158	0xbce9a890	-0.02852276
159	0x3d5072c8	0.050890714
160	0xbd3faf54	-0.046798065
161	0xbe840d6d	-0.25791493
162	0xbc317dfb	-0.010833259
163	0xbe07a042	-0.13244727
164	0xbd88908d	-0.06668196
165	0x3d6f28f9	0.058388684
166	0xbd91f148	-0.07126099
167	0x3cd1641d	0.025560433
168	0x3e17ab94	0.14811546
169	0x3df0d8fe	0.11760138
170	0x3e043193	0.12909536
171	0x3e00c4c6	0.12575063
172	0x3dff2dd9	0.124599166
173	0x3db1cb9f	0.08681416
174	0xbdb67786	-0.08909516
175	0x3e4c1ab3	0.1993206
176	0xbdabf625	-0.08396558
177	0x3db6dd18	0.08928889
178	0x3e04064d	0.12893029
179	0x3db55d91	0.08855737
180	0x3e0cd36c	0.13752526
181	0xbda44677	-0.080212526
182	0x3d3a83cb	0.045535844
183	0x3e1e266e	0.15444347
184	0xbd1d0605	-0.03833582
185	0x3da8e49f	0.08246731
186	0x3e54de30	0.20787883
187	0xbaea6274	-0.0017882125
188	0xbd95de6d	-0.07317815
189	0xbd881b6f	-0.066458575
190	0xbdd419c7	-0.10356479
191	0xbe00a272	-0.12561968
192	0xbd514d23	-0.051098954
193	0x3d1c249b	0.038120847
194	0x3d092143	0.033478986
195	0x3d00ddee	0.03146165
196	0x3d8b2865	0.06794814
197	0xbdde81d2	-0.10864605
198	0x3ccfa2b1	0.025346132
199	0x3d92ce8d	0.07168303
200	0xbe2525c1	-0.16127683
201	0xbd593265	-0.053026576
202	0x3e003b6f	0.12522672
203	0x3b8313c9	0.0040001613
204	0x3d57b4cd	0.05266266
205	0xbdd14609	-0.10218436
206	0xbdf53704	-0.11973384
207	0x3e18e7af	0.1493213
208	0xbda3789b	-0.07981988
209	0x3d7dd4b6	0.061970435
210	0xbe8c04b7	-0.27347347
211	0xbe9aedf6	-0.30259675
212	0xbe252a79	-0.16129483
213	0x3d0c6d6d	0.034284044
214	0xbca69d9a	-0.020338822
215	0xbdfdbfdd	-0.12390111
216	0xbd956e47	-0.07296424
217	0xbe32565d	-0.17415757
218	0xbeb947a5	-0.36187473
219	0xbcaf55af	-0.021403162
220	0xbe8353fe	-0.25650018
221	0x3d9647cb	0.07337912
222	0xbd1f6f87	-0.03892472
223	0x3e4afba5	0.19822557
224	0x3e42ef60	0.19036627
225	0x3e87a04e	0.2648949
226	0xbd62bebb	-0.055357676
227	0xbd8653bf	-0.06558942
228	0xbde997c8	-0.11405903
229	0x3cef2e26	0.02919681
230	0x3cef5e08	0.029219642
231	0x3c4b43c4	0.012406293
232	0xbd3bfbba	-0.045894362
233	0xbc870f89	-0.0164869
234	0xbe2d9069	-0.1694962
235	0x3d963598	0.07334441
236	0xbd1717e1	-0.036888007
237	0xbe08a7f8	-0.13345325
238	0xbd6f5cc7	-0.05843809
239	0xbdd54d53	-0.10415139
240	0x3db3f7d3	0.08787503
241	0xbe8fd4bc	-0.2809199
242	0xbe518ff6	-0.20465073
243	0x3d34f7b4	0.04418154
244	0x3e1d0455	0.15333684
245	0x3e5994d0	0.21248174
246	0xbe1ca18f	-0.15296005
247	0xbd5bba23	-0.05364431
248	0x3c1ea746	0.009683436
249	0x3e2152de	0.15754268
250	0x3e523797	0.20529018
251	0x3e1b7d20	0.1518445
252	0x3e36dc09	0.17857374
253	0x3e0de5ca	0.13857189
254	0x3e9179fe	0.28413385
255	0x3d9becfb	0.0761356

weight_rho f4 [16, 6, 5, 5]
0	0xc0b943c6	-5.789523
1	0xc0c24ca1	-6.071854
2	0xc0b95b0d	-5.7923646
3	0xc0beb6fc	-5.959837
4	0xc0ba3f3d	-5.8202195
5	0xc0ba801f	-5.82814
6	0xc0c1be00	-6.0544434
7	0xc0bc1fed	-5.878897
8	0xc0c21c5b	-6.0659614
9	0xc0c4aa8d	-6.145819
10	0xc0b69c20	-5.706558
11	0xc0c677e5	-6.2021356
12	0xc0bd4361	-5.914475
13	0xc0c5c465	-6.180224
14	0xc0c5c4ce	-6.180274
15	0xc0c0eb4a	-6.028722
16	0xc0ba1e87	-5.8162265
17	0xc0c11bf3	-6.034662
18	0xc0c24e25	-6.072039
19	0xc0c6d3b9	-6.213345
20	0xc0bcd5ee	-5.9011145
21	0xc0c3b781	-6.1161504
22	0xc0c40e15	-6.126719
23	0xc0c4f5ae	-6.15499
24	0xc0bd29e5	-5.911364
25	0xc0c7f8d5	-6.249125
26	0xc0bb6ff4	-5.857416
27	0xc0bd0971	-5.9074025
28	0xc0bc6a8c	-5.888006
29	0xc0c52a53	-6.1614165
30	0xc0c827ed	-6.2548738
31	0xc0cb515c	-6.3536816
32	0xc0c6f3a2	-6.2172403
33	0xc0bdce22	-5.9314127
34	0xc0beac74	-5.9585514
35	0xc0bf86f6	-5.9852247
36	0xc0c36c47	-6.1069674
37	0xc0c2495c	-6.071455
38	0xc0bbd340	-5.8695374
39	0xc0bd0782	-5.9071665
40	0xc0be783b	-5.9521766
41	0xc0bad850	-5.8389053
42	0xc0c0e2f7	-6.0277057
43	0xc0c54ff9	-6.1660123
44	0xc0be05ad	-5.938193
45	0xc0bc9be0	-5.8940277
46	0xc0c07173	-6.013849
47	0xc0bf9a3b	-5.987577
48	0xc0c03a9a	-6.0071535
49	0xc0beb581	-5.9596562
50	0xc0c352c6	-6.103854
51	0xc0c09dfd	-6.0192857
52	0xc0bfdbfc	-5.9956036
53	0xc0c04cf1	-6.0093923
54	0xc0be0486	-5.938052
55	0xc0bd23f5	-5.9106393
56	0xc0c07fb6	-6.0155897
57	0xc0c4dbc5	-6.1518273
58	0xc0bf0963	-5.969896
59	0xc0c0694b	-6.012853
60	0xc0c1e7e0	-6.059555
61	0xc0c29356	-6.0804853
62	0xc0bb6a44	-5.856722
63	0xc0bbd3df	-5.869613
64	0xc0bde9c8	-5.9347878
65	0xc0bb4613	-5.852304
66	0xc0c1d6ae	-6.057456
67	0xc0bcffcc	-5.906225
68	0xc0c0a131	-6.0196767
69	0xc0bb6bad	-5.856894
70	0xc0c47518	-6.1392937
71	0xc0b9df3e	-5.8085012
72	0xc0b5710f	-5.670051
73	0xc0bcd362	-5.9008036
74	0xc0c35603	-6.1042495
75	0xc0c8c1f4	-6.273676
76	0xc0be5d88	-5.9489174
77	0xc0be9919	-5.9561887
78	0xc0c5182b	-6.1592
79	0xc0bae624	-5.8405933
80	0xc0be2a5d	-5.9426713
81	0xc0c23601	-6.0690923
82	0xc0c0eacb	-6.0286613
83	0xc0ba985d	-5.831099
84	0xc0c1862a	-6.0476274
85	0xc0c07dbc	-6.0153484
86	0xc0bfb0da	-5.9903383
87	0xc0bffdd6	-5.999736
88	0xc0c2cc21	-6.087418
89	0xc0bce891	-5.9033895
90	0xc0bf61cc	-5.980688
91	0xc0be8030	-5.953148
92	0xc0b610dd	-5.6895585
93	0xc0c517b6	-6.1591444
94	0xc0bb7412	-5.8579187
95	0xc0c38363	-6.1097884
96	0xc0bf9f5f	-5.9882045
97	0xc0c4d664	-6.1511707
98	0xc0ba2bc0	-5.8178406
99	0xc0c20519	-6.0631223
100	0xc0bdfb0e	-5.9368963
101	0xc0bdc50e	-5.9303045
102	0xc0c1406f	-6.0391154
103	0xc0bfd4c1	-5.994721
104	0xc0c451da	-6.1349916
105	0xc0c29448	-6.0806007
106	0xc0bde0f9	-5.9337125
107	0xc0c1305b	-6.037153
108	0xc0c00d9f	-6.0016627
109	0xc0c17283	-6.0452285
110	0xc0c53349	-6.1625104
111	0xc0c0a475	-6.0200753
112	0xc0be43af	-5.945762
113	0xc0c32f48	-6.0995216
114	0xc0be1a72	-5.940728
115	0xc0bf61b5	-5.980677
116	0xc0bf903b	-5.9863563
117	0xc0c18211	-6.0471272
118	0xc0c3f28f	-6.123359
119	0xc0bb6bb6	-5.8568983
120	0xc0bb67ef	-5.856437
121	0xc0c4eb83	-6.153749
122	0xc0c26da9	-6.0758862
123	0xc0becdc8	-5.96262
124	0xc0c38159	-6.1095395
125	0xc0c35074	-6.103571
126	0xc0bea620	-5.957779
127	0xc0bc6b8c	-5.8881283
128	0xc0c15a74	-6.0422916
129	0xc0bc6933	-5.8878417
130	0xc0c09b6d	-6.018973
131	0xc0be1134	-5.9396
132	0xc0c17abe	-6.046233
133	0xc0c28db7	-6.079799
134	0xc0c84211	-6.2580647
135	0xc0c178b1	-6.045983
136	0xc0bc63aa	-5.887166
137	0xc0bcf9ba	-5.905484
138	0xc0c10560	-6.031906
139	0xc0bdd06e	-5.931693
140	0xc0b9b977	-5.8038898
141	0xc0bf5ffa	-5.980466
142	0xc0c264a4	-6.074785
143	0xc0be9440	-5.955597
144	0xc0bd0de3	-5.907945
145	0xc0bc5e5a	-5.8865175
146	0xc0b9ba78	-5.8040123
147	0xc0bd873f	-5.9227595
148	0xc0bfa294	-5.988596
149	0xc0c0e9cd	-6.02854
150	0xc0c0aa80	-6.020813
151	0xc0be93f7	-5.955562
152	0xc0bf48e1	-5.9776464
153	0xc0bce2c0	-5.9026794
154	0xc0bf086e	-5.969779
155	0xc0be2dab	-5.9430747
156	0xc0c59cce	-6.175391
157	0xc0c2d93f	-6.0890193
158	0xc0c41e47	-6.128696
159	0xc0c1d593	-6.057321
160	0xc0bf9863	-5.987352
161	0xc0c2217c	-6.0665874
162	0xc0bd08ac	-5.9073086
163	0xc0c46789	-6.1376386
164	0xc0c1e261	-6.058884
165	0xc0bb35f7	-5.8503375
166	0xc0c7338d	-6.225043
167	0xc0c36fda	-6.1074038
168	0xc0bccd8e	-5.900092
169	0xc0c13470	-6.037651
170	0xc0be55fc	-5.947996
171	0xc0c2b1a1	-6.084183
172	0xc0c3c9ae	-6.118369
173	0xc0bfdc8a	-5.9956713
174	0xc0bcea45	-5.9035974
175	0xc0bce0e1	-5.902451
176	0xc0c30409	-6.0942426
177	0xc0be1cec	-5.9410305
178	0xc0c18f21	-6.048722
179	0xc0beefba	-5.9667635
180	0xc0bc2a51	-5.8801656
181	0xc0c0d431	-6.0259023
182	0xc0c20f81	-6.0643926
183	0xc0bf9d65	-5.987963
184	0xc0c370fa	-6.107541
185	0xc0be9f62	-5.956956
186	0xc0c27e72	-6.077935
187	0xc0c1d446	-6.0571623
188	0xc0be1106	-5.939578
189	0xc0c464c6	-6.1373014
190	0xc0c1f56d	-6.061209
191	0xc0c0884b	-6.0166373
192	0xc0b89a3a	-5.7688265
193	0xc0c0932f	-6.0179667
194	0xc0be91e7	-5.9553103
195	0xc0bb2538	-5.8482933
196	0xc0b8b342	-5.771882
197	0xc0c5d527	-6.1822696
198	0xc0c367ea	-6.106435
199	0xc0c2a1fa	-6.0822725
200	0xc0c4fd9a	-6.155957
201	0xc0bfa2cc	-5.9886227
202	0xc0c0832c	-6.016012
203	0xc0c40f89	-6.1268964
204	0xc0c2f8a2	-6.0928507
205	0xc0bcd5f5	-5.901118
206	0xc0c59894	-6.1748753
207	0xc0bb9b88	-5.8627357
208	0xc0bd4d09	-5.9156537
209	0xc0bbabe4	-5.8647327
210	0xc0badffe	-5.839843
211	0xc0bb3db9	-5.8512845
212	0xc0c92cc3	-6.286714
213	0xc0bcd1c5	-5.9006066
214	0xc0bd2445	-5.9106774
215	0xc0bbedfc	-5.872801
216	0xc0c0a98a	-6.0206957
217	0xc0bd1a86	-5.9094877
218	0xc0c133d1	-6.0375752
219	0xc0c1d137	-6.056789
220	0xc0c27e59	-6.0779233
221	0xc0c0540c	-6.0102596
222	0xc0c26893	-6.0752654
223	0xc0ba7177	-5.8263507
224	0xc0bcd07e	-5.9004507
225	0xc0c0a91f	-6.0206447
226	0xc0c135e3	-6.037828
227	0xc0bd8ef1	-5.923699
228	0xc0bfe221	-5.9963536
229	0xc0bec3ff	-5.9614253
230	0xc0bd8b24	-5.923235
231	0xc0bf523a	-5.9787874
232	0xc0c82e6e	-6.2556677
233	0xc0c61e9f	-6.191238
234	0xc0c42b4c	-6.1302853
235	0xc0c547a0	-6.1649933
236	0xc0c4ee6b	-6.1541038
237	0xc0ba7fb4	-5.8280888
238	0xc0c1e5fa	-6.0593233
239	0xc0ba91ea	-5.830312
240	0xc0c3ec68	-6.122608
241	0xc0c152de	-6.0413656
242	0xc0c05695	-6.010569
243	0xc0bff5c6	-5.9987516
244	0xc0c091e3	-6.0178084
245	0xc0bbd95f	-5.8702846
246	0xc0b67c1e	-5.702651
247	0xc0c0301d	-6.005873
248	0xc0c172c4	-6.0452595
249	0xc0bac388	-5.8363686
250	0xc0c0a857	-6.0205493
251	0xc0c54bb6	-6.165492
252	0xc0c36cac	-6.1070156
253	0xc0bf4afb	-5.977903
254	0xc0bf0e4a	-5.9704943
255	0xc0bf895d	-5.985518

bias_mu f4 [16]
0	0xbd873585	-0.06602005
1	0x3c63b12f	0.013897224
2	0x3e32ec9a	0.17473069
3	0x3b970a95	0.004609416
4	0x3cd4e826	0.025989603
5	0x3d6b930a	0.057513274
6	0xbc24eb71	-0.010065899
7	0xbe1f9149	-0.15582766
8	0xbd018f06	-0.03163054
9	0x3c8ef142	0.017449025
10	0x3c929d91	0.0178974
11	0x3da80c67	0.082054906
12	0xbe45083e	-0.19241425
13	0xbdc24534	-0.09485856
14	0x3db5684a	0.08857782
15	0xbdc97209	-0.098362036

bias_rho f4 [16]
0	0xc0c11879	-6.0342374
1	0xc0c4bfbc	-6.148405
2	0xc0bc5394	-5.8852024
3	0xc0c23a0d	-6.0695863
4	0xc0c57f34	-6.1717777
5	0xc0c1afd7	-6.052715
6	0xc0be3a9c	-5.9446545
7	0xc0c085d4	-6.0163364
8	0xc0be196a	-5.9406023
9	0xc0bb3f41	-5.8514714
10	0xc0be3598	-5.944042
11	0xc0c483aa	-6.1410723
12	0xc0c3e11c	-6.121229
13	0xc0bfba36	-5.991481
14	0xc0c589c1	-6.1730657
15	0xc0bfadef	-5.989982

mu f4 [16, 6, 5, 5]
0	0x3d4b7856	0.04967531
1	0x3d8f98ab	0.07011541
2	0x3b2568cc	0.0025239466
3	0x3dd42674	0.10358897
4	0x3e4a1e53	0.1973813
5	0x3e4fead9	0.20304431
6	0x3e4d1ba9	0.20030083
7	0x3d31393a	0.043267466
8	0xbdf3c314	-0.119024426
9	0x3c23172b	0.009954254
10	0xbe02f94c	-0.12790412
11	0x3e340331	0.17579342
12	0x3d05344e	0.032520585
13	0xbe58bf58	-0.21166742
14	0x3dc8bb7e	0.09801386
15	0xbd7dd160	-0.061967254
16	0xbd44c963	-0.04804362
17	0x3e531708	0.20614254
18	0x3e9bb80a	0.30413848
19	0x3d658368	0.056033522
20	0x3c86aa41	0.016438605
21	0x3ce14548	0.027498856
22	0x3df22b09	0.118246146
23	0x3da5d405	0.0809708
24	0x3e60ff68	0.2197243
25	0x3e65faaf	0.2245891
26	0x3d640f2f	0.055678543
27	0xbdc9a523	-0.098459505
28	0xbe582874	-0.21109182
29	0xbd1bd990	-0.03804928
30	0x3c2a3d23	0.010390553
31	0x3e690cfa	0.22758856
32	0x3d017147	0.03160217
33	0xbc46f64a	-0.012143681
34	0x3d1d5ba2	0.038417466
35	0xbe015360	-0.12629461
36	0x3c8e641d	0.017381722
37	0x3d5b715a	0.053574897
38	0xbc35df34	-0.011100579
39	0xbd7dde0e	-0.061979346
40	0xbb078ba8	-0.0020682607
41	0x3d0b9d89	0.034085784
42	0xbdf1a680	-0.117993355
43	0x3d692002	0.05691529
44	0xbd5e3533	-0.054249953
45	0xbde20d3e	-0.11037682
46	0x3caebe36	0.021330934
47	0x3d8b83b2	0.06812228
48	0x3d97d0e8	0.074128926
49	0xbda6c554	-0.08143106
50	0xbdb4284d	-0.08796749
51	0xbd4be465	-0.04977836
52	0x3d05e5ac	0.032689735
53	0x3da50a1d	0.080585696
54	0x3e4de617	0.20107304
55	0xbe3ab3f0	-0.18232703
56	0x3da9c120	0.08288789
57	0xbe6e55ef	-0.23274969
58	0x3d8ba6b0	0.068189025
59	0x3d936b87	0.071982436
60	0x3df618a4	0.120164186
61	0xbe6d418c	-0.23169535
62	0x3ca0437f	0.019563435
63	0xbe45fc2f	-0.19334482
64	0x3d8c8e27	0.06863051
65	0xbd9f50c7	-0.07779079
66	0xbe62e28c	-0.22156733
67	0xbdab92a4	-0.08377579
68	0xbe4db858	-0.20089853
69	0xbd0e13a5	-0.034686703
70	0xbe24c252	-0.16089752
71	0xbe12e8f4	-0.14346677
72	0xbd17a592	-0.037023135
73	0xbb3b7288	-0.0028602201
74	0x3e922bc8	0.28549027
75	0xbe0c808d	-0.13720913
76	0xbb51c675	-0.0032009159
77	0xbd293f02	-0.041319855
78	0xbe609bfd	-0.21934505
79	0xbe01e161	-0.12683631
80	0x3e6d3529	0.2316481
81	0xbdf2779a	-0.118392184
82	0x3a6e1657	0.00090823084
83	0x3c394af1	0.011309371
84	0xbe480989	-0.19534887
85	0x3e0cf8af	0.1376674
86	0x3d67754a	0.05650834
87	0xbc34bc4f	-0.011031224
88	0xbe08f670	-0.13375258
89	0x3d99050b	0.07471665
90	0xbe02329b	-0.12714617
91	0x3d07d2dd	0.03316008
92	0x3e16f640	0.14742374
93	0xbdf05938	-0.11735767
94	0x3dee910c	0.11648759
95	0x3e55a609	0.20864119
96	0x3d827383	0.06369688
97	0x3e793663	0.24337153
98	0xbd0a8b6c	-0.03382437
99	0x3e6acd04	0.2292977
100	0xbdc66858	-0.09687871
101	0x3d8a41bb	0.06750818
102	0xbd4e69ac	-0.050393745
103	0xbd9ff363	-0.07810094
104	0x3d345bce	0.044032864
105	0x3da7a0da	0.08184977
106	0xbe6059cf	-0.2190926
107	0x3cc711c5	0.024300465
108	0xbe12961c	-0.14315075
109	0xbd795a61	-0.060877208
110	0x3d2a1882	0.04152728
111	0x3e0a3e50	0.13500333
112	0xbe1607b4	-0.14651376
113	0x3dbd9c8e	0.09258376
114	0xbdfb8c74	-0.12282649
115	0xbc802305	-0.015641699
116	0xbd5994c9	-0.05312041
117	0xbd8b86eb	-0.06812843
118	0x3d8cf35f	0.06882357
119	0xbe6213fc	-0.22077936
120	0x3e57c4a7	0.2107111
121	0x3dcff702	0.10154535
122	0x3cc60ca1	0.024175944
123	0x3dd5aa5e	0.104328856
124	0x3e2c9842	0.16854957
125	0xbdd66ece	-0.10470353
126	0xbe49d255	-0.19709142
127	0xbda6ca3e	-0.081440434
128	0xbe4bfeae	-0.19921371
129	0x3e16651e	0.1468701
130	0xbda3a29b	-0.07989999
131	0xbe413965	-0.1886955
132	0x3da1f27f	0.079075806
133	0xbcf56ecf	-0.029960064
134	0xbdf58975	-0.119891085
135	0xbd0531a8	-0.03251806
136	0x3e28b720	0.16476107
137	0x3e021f3a	0.12707224
138	0xbdf6da00	-0.12053299
139	0xbdfd830e	-0.12378512
140	0x3e122e29	0.14275421
141	0xbcddba36	-0.027066331
142	0x3db86421	0.09003473
143	0x3dfae25a	0.122502044
144	0x3cc5c679	0.02414249
145	0xbb82cfcf	-0.003992058
146	0xbe2e3c4d	-0.1701519
147	0x3e5c3046	0.2150279
148	0x3e85ad2a	0.26108676
149	0xbd2ef5ef	-0.04271501
150	0xbdc0fdf2	-0.09423436
151	0x3d8f0a2c	0.06984362
152	0x3d3013bd	0.042987574
153	0xbda186a4	-0.07887009
154	0x3d67b534	0.056569293
155	0xbdd7a159	-0.105288215
156	0xbcf196ee	-0.029490914
157	0xbd10a5ea	-0.035314478
158	0xbce9a890	-0.02852276
159	0x3d5072c8	0.050890714
160	0xbd3faf54	-0.046798065
161	0xbe840d6d	-0.25791493
162	0xbc317dfb	-0.010833259
163	0xbe07a042	-0.13244727
164	0xbd88908d	-0.06668196
165	0x3d6f28f9	0.058388684
166	0xbd91f148	-0.07126099
167	0x3cd1641d	0.025560433
168	0x3e17ab94	0.14811546
169	0x3df0d8fe	0.11760138
170	0x3e043193	0.12909536
171	0x3e00c4c6	0.12575063
172	0x3dff2dd9	0.124599166
173	0x3db1cb9f	0.08681416
174	0xbdb67786	-0.08909516
175	0x3e4c1ab3	0.1993206
176	0xbdabf625	-0.08396558
177	0x3db6dd18	0.08928889
178	0x3e04064d	0.12893029
179	0x3db55d91	0.08855737
180	0x3e0cd36c	0.13752526
181	0xbda44677	-0.080212526
182	0x3d3a83cb	0.045535844
183	0x3e1e266e	0.15444347
184	0xbd1d0605	-0.03833582
185	0x3da8e49f	0.08246731
186	0x3e54de30	0.20787883
187	0xbaea6274	-0.0017882125
188	0xbd95de6d	-0.07317815
189	0xbd881b6f	-0.066458575
190	0xbdd419c7	-0.10356479
191	0xbe00a272	-0.12561968
192	0xbd514d23	-0.051098954
193	0x3d1c249b	0.038120847
194	0x3d092143	0.033478986
195	0x3d00ddee	0.03146165
196	0x3d8b2865	0.06794814
197	0xbdde81d2	-0.10864605
198	0x3ccfa2b1	0.025346132
199	0x3d92ce8d	0.07168303
200	0xbe2525c1	-0.16127683
201	0xbd593265	-0.053026576
202	0x3e003b6f	0.12522672
203	0x3b8313c9	0.0040001613
204	0x3d57b4cd	0.05266266
205	0xbdd14609	-0.10218436
206	0xbdf53704	-0.11973384
207	0x3e18e7af	0.1493213
208	0xbda3789b	-0.07981988
209	0x3d7dd4b6	0.061970435
210	0xbe8c04b7	-0.27347347
211	0xbe9aedf6	-0.30259675
212	0xbe252a79	-0.16129483
213	0x3d0c6d6d	0.034284044
214	0xbca69d9a	-0.020338822
215	0xbdfdbfdd	-0.12390111
216	0xbd956e47	-0.07296424
217	0xbe32565d	-0.17415757
218	0xbeb947a5	-0.36187473
219	0xbcaf55af	-0.021403162
220	0xbe8353fe	-0.25650018
221	0x3d9647cb	0.07337912
222	0xbd1f6f87	-0.03892472
223	0x3e4afba5	0.19822557
224	0x3e42ef60	0.19036627
225	0x3e87a04e	0.2648949
226	0xbd62bebb	-0.055357676
227	0xbd8653bf	-0.06558942
228	0xbde997c8	-0.11405903
229	0x3cef2e26	0.02919681
230	0x3cef5e08	0.029219642
231	0x3c4b43c4	0.012406293
232	0xbd3bfbba	-0.045894362
233	0xbc870f89	-0.0164869
234	0xbe2d9069	-0.1694962
235	0x3d963598	0.07334441
236	0xbd1717e1	-0.036888007
237	0xbe08a7f8	-0.13345325
238	0xbd6f5cc7	-0.05843809
239	0xbdd54d53	-0.10415139
240	0x3db3f7d3	0.08787503
241	0xbe8fd4bc	-0.2809199
242	0xbe518ff6	-0.20465073
243	0x3d34f7b4	0.04418154
244	0x3e1d0455	0.15333684
245	0x3e5994d0	0.21248174
246	0xbe1ca18f	-0.15296005
247	0xbd5bba23	-0.05364431
248	0x3c1ea746	0.009683436
249	0x3e2152de	0.15754268
250	0x3e523797	0.20529018
251	0x3e1b7d20	0.1518445
252	0x3e36dc09	0.17857374
253	0x3e0de5ca	0.13857189
254	0x3e9179fe	0.28413385
255	0x3d9becfb	0.0761356
